lab_model.pth (torch, 589127 bytes, 34 tensors)

cls_token f4 [1, 16]
000000 0c 59 32 be 2c 91 fc 3e 92 0e df be 08 57 9c 3f
       -0.17416781 0.49329507 -0.43565804 1.221406
000010 c2 6e 15 3f 77 05 82 3f aa 67 3c 3f 5e 8e 92 3e
       0.5837213 1.0157918 0.7359568 0.28624243
000020 0c 70 5d bf f8 d8 04 3e 75 75 90 bd 0b 3a 27 3e
       -0.86499095 0.12973392 -0.07053653 0.16330735
000030 16 5c 84 3f 67 4b d3 3e 29 13 e9 be 18 51 5b bf
       1.0340602 0.41268465 -0.4552243 -0.85670614

mask_token f4 [16]
000000 bd 1b 1a 3f 41 31 b3 bf 65 a0 5f bf b9 bc 4d bf
       0.60198575 -1.3999406 -0.8735412 -0.8036609
000010 18 e4 6d bf 09 8d dd be 5b 2c 86 bf 17 d5 e0 bf
       -0.9292617 -0.43271664 -1.0482286 -1.756503
000020 ef 2d 00 40 f8 07 8f 3e 88 a4 5c be 0e 03 52 3b
       2.0028036 0.27935767 -0.21547139 0.0032045278
000030 bc da 07 3f d3 43 53 bf 3d 18 70 3f cd 7c 4d be
       0.5306814 -0.82525367 0.93786985 -0.20067139

window_encoder.name_embedding.weight f4 [119, 8]
000000 e9 66 dd be 6d 90 8a 3c dc 32 1d 3f c7 a2 ac bf
       -0.43242577 0.01691457 0.6140573 -1.3487176
000010 ec a0 66 3f c2 85 7b bf 06 94 d2 bf 47 46 48 3f
       0.900893 -0.98250973 -1.6451423 0.78232235
000020 99 65 82 bf 2a 04 f8 3e cc 81 c5 3f 9d d9 2e be
       -1.0187255 0.48440677 1.5430236 -0.170752
000030 90 a5 83 bf 97 15 10 3f 2e 54 1b bf 9d c5 f0 3e
       -1.0284901 0.56282943 -0.60675323 0.47025767
000040 5d 74 b7 3f c6 47 1d bf 6b 29 d0 3e d4 42 09 be
       1.4332386 -0.6143764 0.406566 -0.13404399
000050 7d 20 03 c0 60 47 18 3f d7 12 32 bf bf dc 9f bf
       -2.048858 0.5948391 -0.6956 -1.2489241
000060 c0 65 84 3b f4 cc f9 be a5 d3 2e 3e 5f 0c c0 3e
       0.00404045 -0.4878918 0.17072923 0.37509438
000070 0a c8 06 bf f8 82 a6 bf dc 40 97 bf 7f 57 38 3f
       -0.52648985 -1.3008718 -1.1816669 0.7200851
000080 2c c9 40 3e 18 64 76 3f 57 21 ab 3e 37 5f 84 3e
       0.18826741 0.9624648 0.33423874 0.25853893
000090 c1 ef e4 bd 64 22 63 bf 8f 78 d8 bc da f4 b1 bf
       -0.11178542 -0.8872435 -0.026424674 -1.3902848
0000a0 2b 04 10 bf db 78 1f be 62 82 7c 3d b5 23 3f bf
       -0.5625636 -0.15573446 0.06164778 -0.7466386
0000b0 18 7b b8 be 87 54 c5 bf 60 e3 28 3f 23 35 05 3e
       -0.36031413 -1.5416421 0.65971947 0.13008551
0000c0 40 94 2e bf d2 a5 bb 3f 0d 23 d5 be 77 fc 05 be
       -0.6819496 1.4659979 -0.41628304 -0.13084589
0000d0 3c aa 06 be a6 aa 9a 3c 58 cf a2 3e 9f 5f 37 be
       -0.13150877 0.0188802 0.31798816 -0.1790757
0000e0 85 bc c3 bb 2f cd 40 bf 99 17 29 40 c3 11 85 3e
       -0.005973401 -0.75313085 2.6420653 0.25990114
0000f0 d8 aa 43 bf 7d 00 3c 3f 5c 05 d8 3e 9e 70 e3 3f
       -0.7643256 0.73438245 0.4219159 1.7768743
000100 26 30 55 3f 60 83 f8 3f 5f 9d 90 3d ea aa 90 3e
       0.83276594 1.9415092 0.07061266 0.28255397
000110 be 8c b8 3f 8c 1c be 3c 20 15 37 3f e6 0d fb bf
       1.4417951 0.023206972 0.7151661 -1.9613616
000120 1d 97 8e bf f0 04 9b be ab 83 05 be 9d e1 d3 3f
       -1.1139866 -0.30277205 -0.13038509 1.6553227
000130 c4 b9 95 3d 3e 6e 1d 40 29 e9 79 3e 4c 16 53 bf
       0.073108226 2.4598536 0.2440535 -0.824559
000140 e7 36 2b be 82 58 d5 3e b6 bb 80 bf a3 e3 5d be
       -0.16720162 0.4166909 -1.0057285 -0.21668868
000150 98 ed 78 3e 84 ee 2e bf d7 23 8a bf 06 92 a3 3f
       0.24309385 -0.68332696 -1.0792187 1.2778938
000160 33 74 9c bf f5 cc c8 be b9 3e da 3f 1a 30 12 3f
       -1.2222961 -0.3921887 1.7050391 0.5710465
000170 a6 f7 b9 bf fc 83 c7 be 05 96 a7 bd d1 97 d2 bd
       -1.4528701 -0.38967884 -0.08182911 -0.10282863
000180 84 1b 04 3f d2 06 ab be f5 75 80 3e 79 c7 d7 3e
       0.51604486 -0.3340364 0.25089994 0.42144373
000190 d0 ae a1 be 73 9b b0 bf 5c 7c 8e bf 00 2a 4a 3f
       -0.31578684 -1.3797439 -1.1131701 0.78970337
0001a0 61 52 ee 3f 20 54 5d bf 71 0d 2e be a9 de ea 3d
       1.861889 -0.8645649 -0.16997315 0.1146825
0001b0 52 3b e7 3f 6f c8 6e 3f 35 31 40 bf 3b 6d 82 bf
       1.8064978 0.9327459 -0.75075084 -1.0189584
0001c0 d4 53 8c 3f cb 8f b0 bd 1b 0b cd 3f 12 09 82 be
       1.0963082 -0.08621176 1.6019014 -0.25397545
0001d0 1d 0a 6d bf f5 6b f7 be 67 31 cd 3d 90 a1 ae bf
       -0.92593557 -0.48324552 0.100191884 -1.3643055
0001e0 ef 0d 4b bf 74 95 8d 3e eb f3 27 bf 1d 54 a3 3e
       -0.79318136 0.27653086 -0.65606564 0.3190011
0001f0 3a c5 36 be 40 d5 80 3f 0b 9b c7 bf b4 9d af bf
       -0.17848673 1.0065079 -1.559419 -1.3720002
000200 96 cf a5 be 0d 53 17 be 39 25 4e 3d 3e 7c 2c be
       -0.32384938 -0.14777775 0.050328467 -0.1684427
000210 05 cc 8c 3e dd 0f 56 bf e2 c8 67 bf d3 6a 9e 3e
       0.27499405 -0.83617955 -0.905409 0.30940875
000220 8e f2 c2 3e bc dd b9 be 7e ca d2 bf d7 63 bd bf
       0.3807568 -0.36301982 -1.6468046 -1.4796094
000230 61 9e 94 bf 54 2a cb bf 5f da 67 3f f0 fc d7 3e
       -1.1610833 -1.5872293 0.9056758 0.42185163
000240 d5 1b 63 be 12 8e a9 3c 8e 43 15 3f 02 f0 94 3d
       -0.22178586 0.020697627 0.58306205 0.0727234
000250 29 46 3d 3f 80 77 08 3f d0 62 98 3f 30 b6 fd 3e
       0.7393518 0.5330734 1.1905155 0.4955306
000260 88 26 ca 3e 34 c9 7b 3f 8d db f2 3d fb 90 0c c0
       0.39482522 0.98353887 0.11858282 -2.196349
000270 8e 8f 56 bf 16 e2 7c bf 34 d9 a7 3e 51 c0 11 bf
       -0.838128 -0.9878248 0.327829 -0.56934077
000280 dc 9e 9b 3d f6 11 b6 bf b0 e6 c5 be 26 8b 25 be
       0.075986594 -1.4224231 -0.38652563 -0.16166362
000290 cb 55 f7 3e 70 d8 0a 3f 77 e1 82 3f bb a5 80 3f
       0.48307642 0.5423651 1.0225056 1.0050577
0002a0 d4 4b 90 3f 72 6c 63 bf 14 6a 28 3f d3 b2 83 bf
       1.1273141 -0.8883735 0.6578686 -1.0288948
0002b0 3f 3b b7 be a4 c5 42 be da 8c 13 bf 41 26 4d 3f
       -0.3578739 -0.19020706 -0.576368 0.80136496
0002c0 85 c3 d9 bf 37 6c 89 3d b6 6d 43 3f 9d 67 b1 3f
       -1.7012793 0.067100935 0.7633928 1.3859745
0002d0 4b 95 9a bd 86 15 aa 3f 1a 1d 82 bf cd 03 c1 be
       -0.075480066 1.3287818 -1.0165131 -0.37698212
0002e0 8e 6f 84 3f 76 c9 d2 be 5a c3 77 3f 85 85 46 3e
       1.0346544 -0.41169327 0.9678246 0.19386871
0002f0 66 99 c2 bf 55 9d 56 bd 95 9b a2 bf 3f b7 ac 3f
       -1.5203063 -0.052396137 -1.270373 1.3493422
000300 b0 e6 ae 3e d0 ed c4 3e 90 4c f4 3e 6f ad 0e be
       0.34160376 0.38462687 0.47714663 -0.13933347
000310 88 ce 64 3f 16 74 82 bf f6 a3 a5 bf cd ae b4 be
       0.8937764 -1.0191677 -1.2940662 -0.35289612
000320 58 d0 c4 bf 7f 7b 53 3d 6a c4 06 bf d6 17 98 bf
       -1.5376081 0.051631447 -0.52643454 -1.1882274
000330 fe 36 18 3f 26 09 89 bf 8c c4 ea be ee 96 55 be
       0.5945891 -1.0705917 -0.45853078 -0.20858356
000340 1b ee 17 3e 75 f7 89 bf 6b e4 a3 3e d4 4f b6 be
       0.14836924 -1.0778643 0.32010207 -0.3560778
000350 2d 7e 12 be f6 5f 40 3f 8c a6 4b bf cc 52 d7 3e
       -0.14305945 0.75146425 -0.79551005 0.42055357
000360 97 78 4b 3f 0a cd 07 bf bb 05 ad 3d d8 5b 81 bf
       0.7948088 -0.5304724 0.084483586 -1.0106153
000370 89 ea 84 3f 08 90 a1 3f 23 ce 9c 3f 65 17 2d bf
       1.0384074 1.262208 1.2250408 -0.6761382
000380 91 94 a7 bf 61 92 bc 3f 49 8a 3f bd 20 3c 68 bf
       -1.3092214 1.4732171 -0.04676274 -0.90716743
000390 1d d3 73 be 7d 6a f8 be 89 81 d3 be 8d 21 b4 3d
       -0.23811002 -0.48518744 -0.41309765 0.08795462
0003a0 9c 31 87 bf af a0 61 3f ba b1 9c 3e 0a b6 b9 3f
       -1.0562015 0.8813581 0.30604345 1.4508679
0003b0 9d 1f d3 3f 3b 55 12 3f 23 9e e0 3d 4b 9a 44 bf
       1.6494023 0.571613 0.10967662 -0.7679793
0003c0 1e 2c 6c bf 87 73 36 bf 11 ae f1 3f a1 03 99 bf
       -0.9225482 -0.7127003 1.8881246 -1.1954232
0003d0 d1 8b a5 be 14 88 93 3f 64 1d 99 bf d2 00 ca 3f
       -0.32333234 1.1525903 -1.1962094 1.57815
0003e0 4a 07 3a 3e ee 8a 27 bf 21 80 10 40 88 85 47 bf
       0.18166843 -0.65446365 2.2578204 -0.7793813
0003f0 c8 39 42 be 45 e9 7a 3f 64 8b 9b be ef 72 08 bf
       -0.18967354 0.9801219 -0.30379784 -0.53300375

window_encoder.value_embedding.weight f4 [4, 1]
000000 8d 9c ff 3d 64 06 ae 3e d7 d4 0a be 04 f9 f4 be
       0.124810316 0.3398925 -0.13557754 -0.47846234

window_encoder.value_embedding.bias f4 [4]
000000 50 af 77 bf de ac 71 3e 31 46 87 3f 02 69 47 bf
       -0.9675188 0.236011 1.0568296 -0.77894604

window_encoder.fc.weight f4 [16, 12]
000000 c5 78 4f 3d 7e 0b ec bd 5c 20 04 be f1 b6 03 3e
       0.050652284 -0.115256295 -0.12902969 0.12862755
000010 31 fd 02 be 50 9d 17 be 60 c1 da 3d f0 1e 62 bd
       -0.12791897 -0.14806104 0.106814146 -0.055205286
000020 1c 83 8d 3e 3d 1d d4 3d 4b a5 8b 3b a4 3b 27 3d
       0.2763909 0.10357139 0.004261648 0.040828362
000030 09 3c 69 bb 32 43 c7 bc 7b 66 a9 bd af 87 0e bd
       -0.0035588762 -0.024324033 -0.082715 -0.034797367
000040 eb dd 6e bd ed 57 54 3e 30 eb 9a bd 37 4c 00 3e
       -0.058317106 0.20736666 -0.0756439 0.12529074
000050 b0 90 1f be be f9 07 3e 00 be 67 be 86 73 3b bc
       -0.15582538 0.13278863 -0.22631073 -0.011441117
000060 02 f6 2d 3e 78 62 32 be c2 ea 2d be 1f 8c a7 3c
       0.16988376 -0.17420375 -0.16984084 0.020452557
000070 ae 47 02 be de 37 3d be 61 fd 37 be 0d 9d 1f 3e
       -0.12722656 -0.18478343 -0.1796775 0.15587254
000080 59 a3 a5 3e 8a a7 31 3e 6f 58 4f be fb a6 32 3e
       0.32351187 0.17349067 -0.20248578 0.1744651
000090 93 05 59 3e 64 44 d1 3d ce b0 90 3d c8 c8 18 bd
       0.21193533 0.102181226 0.07064973 -0.037300855
0000a0 3e b3 c0 bd 5a e5 7d 3d f2 44 32 3e 5e f4 80 3d
       -0.09409188 0.061986305 0.17409113 0.06296609
0000b0 8c 73 ba 3d 96 91 c5 3c 2e b1 c4 bd 9d 4e d2 3d
       0.0910407 0.024117272 -0.09604107 0.102689005
0000c0 1d 9e 16 be 6a ed a5 bc 47 0d 18 be 1c 74 f2 bd
       -0.14708753 -0.02025481 -0.14848815 -0.11838552
0000d0 a7 81 d5 3d 48 1d 43 3e d4 ac 05 be f1 a4 0b 3e
       0.1042512 0.19054139 -0.1305421 0.13637139
0000e0 83 24 9e 3e c0 f2 24 be 33 5f 42 bc e9 f1 81 bd
       0.3088723 -0.16108227 -0.011863518 -0.06344969
0000f0 81 12 ce 3d 74 a7 03 be 61 de 00 3e 13 35 f1 3d
       0.10062123 -0.12856847 0.12584831 0.11777701
000100 ef ec 0b be ff 94 2c 3d b0 e7 43 be d1 b6 77 3d
       -0.13664602 0.04213428 -0.1913135 0.06047708
000110 3d fe e7 3d 5a ba 3b bd 07 6c fc bd 33 6d 76 3e
       0.11327789 -0.045832016 -0.12325292 0.24065094
000120 3e e3 96 3d f9 9a c8 3d d1 95 a4 bd 64 88 1b be
       0.07367562 0.09795184 -0.08036388 -0.15188748
000130 63 64 64 3d 48 2c cc bd 2d 85 54 be a0 e5 08 3b
       0.0557598 -0.099693835 -0.20753928 0.002088882
000140 1b ff 89 3d 33 79 ba bd 9d 8e 82 be 8f cc 72 3e
       0.06738111 -0.09105148 -0.2549943 0.23710845
000150 d0 59 28 be ea f1 0d 3e 01 2a 0f 3e 6f 98 3f bb
       -0.16440511 0.13861814 0.13980867 -0.0029235145
000160 8d 2e 00 3d be 96 a6 bd 9d 78 a7 3d 4f ad b1 bd
       0.031294394 -0.081342205 0.08177302 -0.08675634
000170 fb 00 5e 3e cb cf 09 be 2c a4 dc bd 0a 24 10 be
       0.21680062 -0.13458173 -0.10773501 -0.14076248
000180 dd ad 50 be f4 76 51 3e 8c b9 b7 3d 23 90 2f 3e
       -0.20378824 0.20455533 0.08970937 0.17144828
000190 eb 06 4c 3d a1 55 e8 3d 8f c5 bf bc 1e 4a bf 3d
       0.049811285 0.113444574 -0.023409633 0.093403086
0001a0 ff 16 0c 3d 9e 02 4d be b1 fa 87 be 1b 41 1d bd
       0.03420162 -0.2002053 -0.2655845 -0.038392168
0001b0 4c 99 39 be 71 ee ae bd 75 23 b4 bc b5 ff d2 3d
       -0.18124884 -0.08541573 -0.021989563 0.103026785
0001c0 35 e4 9e 3d 36 79 95 3d 46 40 25 bd ff 3f dc 3d
       0.07758371 0.0729851 -0.0403445 0.10754394
0001d0 65 0d 84 3e 64 b1 b2 3c f8 20 51 bd e0 d8 82 bd
       0.2579147 0.021813102 -0.051056832 -0.06389022
0001e0 9b f6 aa bd 42 a6 a5 bd be d2 5f bd 33 66 b7 3d
       -0.083478175 -0.08088352 -0.05464434 0.0895504
0001f0 db ab e7 3d a0 e5 21 be 1b 13 fd 39 ec 38 fb 3b
       0.11312076 -0.15810251 0.00048270155 0.0076666977
000200 5b fd 92 bd ad 48 1f 3d fc 81 4d be 59 15 93 3d
       -0.0717723 0.03888767 -0.20069116 0.07181806
000210 0a 17 a2 3d df dc a3 3c 5e d9 2f bd 38 12 aa 3d
       0.079145506 0.02000278 -0.042931907 0.08304256
000220 16 c8 d2 bd 06 29 43 3e de 3b e2 bd fe a0 3d 3e
       -0.102920696 0.19058618 -0.11046575 0.18518445
000230 25 bf 4e be 8c bb 6a 3e 5d 1a 92 be d7 ba ac 3d
       -0.20190103 0.22923106 -0.2853574 0.08434074
000240 4b 51 4b be 20 0d bf 3c 72 c8 dc 3c 3f 16 24 be
       -0.1985523 0.023321688 0.026951049 -0.16024111
000250 48 2b 3f be bd 19 88 bd 13 9e 12 3d f8 c3 40 3e
       -0.18668854 -0.06645534 0.035795283 0.18824756
000260 ed a2 a2 3e a0 ff 09 3e 31 ca 63 be 71 01 9e 3d
       0.31764928 0.1347642 -0.22245099 0.07715119
000270 fa b9 e6 bc 4f 54 dc 3d 15 5c ae 3d 15 02 35 3d
       -0.028164852 0.10758268 0.08513657 0.04419144
000280 9a 73 22 bc 48 1e 41 3e 4c 2a 9f 3d fe b6 e0 3b
       -0.009915257 0.18859208 0.07771739 0.006857752
000290 b1 ee da 3c dc 97 5d bc a3 6e d9 bd f9 d1 27 3d
       0.026725145 -0.013524976 -0.106168054 0.04097173
0002a0 ee bc 2a be 31 2e cb 3d f7 c3 a7 3d 43 4e 0c 3d
       -0.16673633 0.0992092 0.08191674 0.034254324
0002b0 3b c3 11 3e c0 f8 ba bd 1f 1e 04 be 93 0c 03 bd
       0.14234631 -0.091294765 -0.12902115 -0.031994414
0002c0 d4 eb a8 3e 3c 0f 5c be 03 21 bb 3d b7 4d 34 3e
       0.32992423 -0.21490186 0.09137156 0.17607771
0002d0 84 eb 2b 3e ee ef fb bd 89 df ed bd 80 41 c9 3c
       0.16789061 -0.12301622 -0.116149016 0.024567366
0002e0 1d 51 95 bd 0b e3 31 be e9 d9 4d bb 2f b9 b6 3d
       -0.07290862 -0.17371766 -0.0031410402 0.0892204
0002f0 60 37 91 3b 49 9c 1f 3e 24 2a ca bd d5 cf 90 3d
       0.00443165 0.15586962 -0.09871319 0.07070891

window_encoder.fc.bias f4 [16]
000000 29 64 53 be 82 a0 27 be fe 89 16 be 73 9d 21 be
       -0.20643677 -0.16369823 -0.14701077 -0.15782718
000010 c6 42 29 be 9f 79 71 be 8e 2c dd bd 4d 4e 63 be
       -0.16529378 -0.23581551 -0.10799514 -0.22197838
000020 68 be ff bd 38 6e 74 bc 57 20 19 be fd 40 87 be
       -0.12487489 -0.014918856 -0.14953743 -0.2641677
000030 f3 68 b9 bd 55 96 4d be 94 ec 83 be 87 68 9d be
       -0.090532206 -0.20076878 -0.25766432 -0.3074381

positional_embedding.weight f4 [331, 16]
000000 6c 28 72 3e c8 99 2c bf 93 03 4e 3f 43 8a 16 40
       0.23648232 -0.6742215 0.80474204 2.3521888
000010 1e 4b 88 3f b3 18 0c c0 c7 4a c3 3f 4f 17 90 3f
       1.0647924 -2.1890075 1.5257195 1.1257113
000020 e4 e1 aa be 2f 1a 11 bf 68 fa ab bf 8d 1b 81 be
       -0.33375466 -0.5668058 -1.3435793 -0.25216332
000030 6c cf c7 bf ae f3 96 bf 05 8a 44 be ed 60 00 c0
       -1.5610175 -1.1793115 -0.19193275 -2.0059159
000040 fe 76 c0 bd 51 07 d2 bf 05 54 c3 3f 82 d8 48 bf
       -0.09397696 -1.6408483 1.5260016 -0.78455365
000050 9b bd 95 be a4 3e 35 bf 52 3d c3 3e 73 61 4e 3e
       -0.2924622 -0.70798707 0.3813272 0.20154361
000060 b7 c6 a6 3f 7b 2e 73 bf 4d 8f e5 3f c4 57 2b 3f
       1.3029393 -0.949928 1.7934357 0.66930795
000070 d3 c2 2f 3f 57 0f df be f6 71 19 3f 79 9f 93 bd
       0.68656653 -0.4356639 0.59939516 -0.07208151
000080 47 b6 61 bf 7a dd 95 bf 08 e0 53 3e 6e 52 a5 3f
       -0.8816876 -1.1708214 0.2069093 1.291578
000090 cf 4a 9f be 32 b5 15 40 85 db 0c bf be 91 bf bf
       -0.31111762 2.3391843 -0.5502246 -1.4966352
0000a0 cf 1f 0d bf 3b 84 ea be 3f 1c fd 3e f0 c2 46 be
       -0.5512666 -0.4580401 0.49435613 -0.194103
0000b0 20 e7 9a be 9f dd 21 bf 6a e6 72 3d a2 46 7d 3f
       -0.3025446 -0.6322879 0.05930177 0.989359
0000c0 ec ad 5e be 8c 0e 97 3f f6 90 cd 3e 1c 41 16 bf
       -0.21746033 1.1801314 0.4014966 -0.586931
0000d0 1e d3 a6 be 33 4a 2d 40 dc d2 ad bf 0b ad c5 3f
       -0.32582945 2.7076538 -1.3579974 1.5443434
0000e0 e5 9b 23 40 34 06 5a bf 42 90 db bf ba 88 24 bf
       2.55639 -0.85165715 -1.7153399 -0.6427113
0000f0 1c 88 bb bf a2 99 f5 3f e4 d3 0e 3f 55 6c 2d be
       -1.4650912 1.918751 0.5579207 -0.16935857
000100 30 cd 41 3f c0 7f 6a 3e 49 d0 25 3f 45 a9 88 bf
       0.75703716 0.22900295 0.6477094 -1.0676657
000110 49 88 e4 bf 09 96 d1 3f 64 a9 3a be c6 94 d1 bf
       -1.7854091 1.6373912 -0.1822868 -1.6373527
000120 06 3a 8d be 48 22 9b be ee 52 5d 3f 7b 11 d7 bd
       -0.2758333 -0.30299592 0.86454666 -0.10501381
000130 4f 04 9b 3f a3 a6 e4 bf 86 07 77 3e 71 55 96 3f
       1.211069 -1.7863353 0.24123964 1.1744825
000140 07 4e cd bf e4 f0 0f 3f d8 05 18 bf 4b d3 63 3f
       -1.6039437 0.56226945 -0.59383917 0.8899428
000150 6a 75 8c 3f 04 2b d4 3f d3 93 37 bf 62 72 b3 3e
       1.0973332 1.6575627 -0.71709937 0.35048205
000160 a9 2f 7b 3e b4 8e 77 3f ef 78 53 bf 4e f1 1a 3e
       0.245299 0.9670212 -0.82606405 0.15131113
000170 2e 84 03 bf e9 3b aa bf 3c cf 62 bd 41 f3 b1 3f
       -0.51373565 -1.3299533 -0.055373415 1.390236
000180 ae 98 05 bf 95 ed fd bd 13 69 b5 be 91 24 6a bf
       -0.52186096 -0.12398831 -0.35431728 -0.91462046
000190 fc 7d 4f bf a0 9d bc bf ea 92 8a bf cd 9a 53 be
       -0.8105161 -1.4735603 -1.0826085 -0.2066452
0001a0 e4 36 cc 3f df d2 e7 bf 40 68 23 bf 83 a8 e1 bc
       1.5954251 -1.8111228 -0.6383095 -0.027546173
0001b0 cd 4b b9 bf c2 db a8 be 90 67 dd bf d6 75 82 be
       -1.4476258 -0.32980162 -1.729723 -0.25480527
0001c0 5f 40 fa 3e 64 a0 17 bf 3d 65 9b 3f 37 dd 01 bf
       0.48877236 -0.5922911 1.214027 -0.5072817
0001d0 20 a5 a5 be a6 cf 43 bf fe 90 8c 3d 9d 80 19 c0
       -0.32352543 -0.7648872 0.068635926 -2.398475
0001e0 ca 9d b4 3f 4e 12 4a be 85 da 99 be fb 53 a6 3b
       1.4110653 -0.19733545 -0.3004953 0.005075929
0001f0 a7 7e 06 3f da 3a 8e 3f 72 0d fe be d1 8b bd bf
       0.52537006 1.111171 -0.49619633 -1.4808294
000200 87 cf b5 3e 15 1e 8f 3f 93 5c 5c 3f d3 70 2b be
       0.35509893 1.1181055 0.8607876 -0.16742258
000210 65 18 97 bf 75 bb 8e bf 9d 32 49 be 0a 86 b4 bf
       -1.180432 -1.1150957 -0.19648214 -1.4103405
000220 33 a3 ed 3e fe bf b1 bf 13 9d 03 3d 8d 7a 4f 3f
       0.46413574 -1.3886716 0.03213222 0.8104637
000230 08 d3 18 bf 58 38 dd 3f 2b 85 16 c0 ad 61 9b 3f
       -0.5969701 1.728282 -2.351878 1.2139183
000240 6e 10 e6 be ed 42 1b 3f 4e 1b f1 3e 3c aa 0e bf
       -0.4493441 0.60648996 0.47091144 -0.5572851
000250 4f 88 01 c0 51 87 4e 3e 43 0a 14 bf e1 05 ac 3e
       -2.0239446 0.20168807 -0.5782816 0.33598235
000260 4c f4 8e 3f b9 b2 f4 be d5 cc b9 3e d4 61 e7 3e
       1.1168303 -0.47792605 0.36289087 0.45191824
000270 b3 2d 04 40 13 8c 49 3f 06 03 9b be f6 d5 07 3f
       2.0652893 0.7872936 -0.30275744 0.53060853
000280 3e e3 0d 3f 60 cd e8 3e 61 2b 52 bf ec a3 a4 3f
       0.5542487 0.4546919 -0.8209744 1.2862525
000290 e8 74 0d bf de c0 1b 3f 69 40 90 3e c5 4e 2e bf
       -0.5525651 0.60841167 0.2817414 -0.6808894
0002a0 60 6e b3 bf 9d 0b da 3e 68 d8 58 bd 4d 77 06 bf
       -1.4018059 0.42586985 -0.052940756 -0.5252579
0002b0 c2 d5 98 3f f0 47 a5 3c ab be 20 3f a4 a8 54 bf
       1.1940234 0.020175904 0.62790936 -0.83069825
0002c0 96 1c 50 3f d0 78 c7 be 68 81 32 bf df b0 1b bf
       0.8129362 -0.3895936 -0.6972871 -0.6081676
0002d0 0c c4 f5 3d 64 b3 b1 bd 8a 3e 0e bf 17 65 37 3f
       0.120002836 -0.08676794 -0.5556418 0.71638626
0002e0 b3 18 a2 be 83 57 8e bf e2 25 20 3f 55 29 db 3f
       -0.3165947 -1.1120456 0.62557805 1.7121989
0002f0 39 95 55 bd 0f aa 79 bf 59 c1 ec be 40 b6 67 3f
       -0.052144263 -0.97525114 -0.46241263 0.90512466
000300 f3 bf d4 be f5 e5 89 3e b8 76 7a be c2 b9 ed bf
       -0.41552696 0.26933256 -0.2445935 -1.8572314
000310 07 d1 8c bf 73 95 1c 3f 0a 85 79 bf 3c 64 ad 3f
       -1.100129 0.6116554 -0.97468626 1.3546214
000320 2b 5c 24 3f 91 f6 23 bf b4 d6 9a bf 4e 51 bc 3f
       0.6420314 -0.64048105 -1.2096772 1.4712312
000330 7f 50 e8 3f 92 58 44 bf 65 02 c2 bf 0a e6 80 bf
       1.8149565 -0.7669765 -1.5156981 -1.0070202
000340 0b d1 84 3f d3 5e 81 bf 39 de c1 3b 85 c1 8b bf
       1.0376295 -1.0107063 0.0059163836 -1.0918432
000350 7b 31 e8 3f fc 52 9a 3f 7b 70 f9 bf a1 19 64 3f
       1.81401 1.2056575 -1.9487451 0.89101607
000360 2b 66 95 3d 71 29 81 bf 63 66 55 3f 9d ef 2e 3f
       0.072948776 -1.0090772 0.83359355 0.6833437
000370 a6 69 75 3f 6d 6f b3 be b7 41 1c bf 9f 85 62 bf
       0.9586433 -0.3504595 -0.6103777 -0.8848514
000380 5b ec c0 3f 3d 25 62 3f 82 cc 8f bc 7a 7b 6d 3f
       1.507213 0.8833807 -0.017553572 0.92766535
000390 cb 19 d1 3f bd 8c cd 3f a2 2e 59 bd 45 20 ca 3f
       1.6335996 1.6058575 -0.05302299 1.5791098
0003a0 08 8d bd 3e 13 8d 40 3f fb 41 2d bf 07 2b de 3f
       0.3702166 0.7521526 -0.67678803 1.7356881
0003b0 72 5f 15 c0 83 23 9a bf 65 41 a7 bf 80 f9 89 bf
       -2.3339505 -1.2042087 -1.3066832 -1.0779266
0003c0 31 5f ad 3f 21 70 e4 bf ea f6 f2 bf d6 76 a7 3d
       1.3544675 -1.7846719 -1.8981602 0.08176963
0003d0 88 b4 68 3f e4 67 41 3f 24 3d af bd 93 02 96 be
       0.9090047 0.7554915 -0.085565835 -0.2929884
0003e0 2d 1b b6 bf 14 47 7d bf bb 37 bf 3e 9b da 6e 3e
       -1.4227043 -0.9893658 0.37347206 0.23325579
0003f0 73 ec 0e 3f 2d 87 19 40 89 c2 55 3f 7d 23 3c bf
       0.5582954 2.3988755 0.8349996 -0.7349165

transformer_encoder.layers.0.self_attn.in_proj_weight f4 [48, 16]
000000 14 c8 6e bd 88 c4 47 3e 78 d6 23 3d f2 e3 9c 3c
       -0.058296278 0.19508564 0.039999455 0.019151662
000010 20 e8 95 3e f9 0b 54 be 02 89 ae 3d cc f8 4d be
       0.2927866 -0.20707692 0.08522226 -0.2011444
000020 16 bc db bd f6 d9 70 be 1a f4 15 be 87 c7 45 3e
       -0.10729234 -0.23520645 -0.14643899 0.19314395
000030 e1 d9 1e be 08 e3 63 3d 03 c2 7e be 88 8f 87 bc
       -0.15512802 0.055636436 -0.24878697 -0.016547933
000040 54 e7 9b 3e 09 45 9c be 26 21 13 3e 4c 3c 8b 3e
       0.30449927 -0.3052142 0.14368114 0.2719444
000050 57 4f 74 3e b2 fc 67 be 44 64 8d bd f7 d0 5c 3d
       0.23858391 -0.2265499 -0.0690389 0.053910222
000060 81 f7 33 3d e8 c5 99 be cc 81 5b 3e 17 f9 1f 3e
       0.04393721 -0.30033803 0.21436232 0.15622364
000070 47 04 95 3e 7a 93 e4 bc 00 bc 85 3e a1 e0 09 3c
       0.29104826 -0.027902354 0.26119995 0.008415372
000080 ad 31 86 bd 12 fd ba 3d f1 59 92 bd 52 f2 95 be
       -0.06552444 0.091303006 -0.07146061 -0.29286438
000090 8e 13 9a bd fe fe 35 3e 0d de 1e 3d 43 75 3f 3d
       -0.07523261 0.17773053 0.038785983 0.04674269
0000a0 01 0a 9b 3d 67 91 fe 3c c2 14 26 3d 01 2f 0a 3e
       0.075702675 0.031075193 0.04054714 0.13494493
0000b0 3f 55 9d 3d 3c 4b 9c 3e a1 ac 9e bd ab 94 9c 3d
       0.07682275 0.3052615 -0.0774777 0.07645544
0000c0 60 1f 8e be 6a d6 85 3e af 97 f2 bc 9f 19 ab bc
       -0.27758312 0.26140147 -0.029613344 -0.02088624
0000d0 a6 0d 94 be b7 16 44 3e 64 67 39 be 06 a0 2a 3e
       -0.28916663 0.1914929 -0.18105847 0.16662607
0000e0 a5 9f 76 be a0 a1 5a bd 35 11 8f bd 1c 2b 59 3e
       -0.24084337 -0.053376794 -0.06985704 0.21207851
0000f0 85 36 84 3d 2f c5 1b 3d 56 78 6f be 42 51 92 3e
       0.06455711 0.038029846 -0.23385748 0.2857762
000100 7a 4d 8e 3e cd 3f bc bd 7a cc f3 3d 63 16 53 be
       0.27793485 -0.091918565 0.11904235 -0.20614009
000110 4e 02 98 bd 79 a9 d7 3c 1b 8c 6e be 12 cf 95 3e
       -0.074223146 0.026325928 -0.23295633 0.29259545
000120 3a e6 88 3e 43 c1 2c 3e e1 d2 52 3d 44 7d 44 3e
       0.2673815 0.16870598 0.05147064 0.1918841
000130 5a 54 2c be fe 45 25 3e 82 fd 1d 3e 70 28 91 be
       -0.16829053 0.16139981 0.15428737 -0.28351164
000140 5d 49 64 be 57 52 83 be a9 47 8c 3e a0 12 f8 3d
       -0.22293611 -0.25648758 0.27398422 0.121129274
000150 5b 78 18 bc ad 5c f4 bd bd 9e e8 3d 9b f4 7a 3e
       -0.009306039 -0.11931739 0.11358402 0.24507372
000160 38 d9 73 bd 61 7d 0c 3e 88 0f 81 3e ba 29 5c 3c
       -0.059533328 0.13719703 0.25207162 0.013437683
000170 ec b6 39 3e 30 03 b3 be a4 4c 35 bc 9f af e3 3d
       0.18136185 -0.3496337 -0.011065636 0.111174814
000180 65 2d 82 be b4 0b 66 3e e9 ff 8f be e1 30 8e 3e
       -0.25425258 0.22465402 -0.2812493 0.27771667
000190 02 17 97 3e 5e 23 f7 3d cb 84 50 3e 7d e9 9b 3e
       0.2950974 0.12067293 0.20363156 0.30451575
0001a0 1c e0 33 be ca 6d 89 3e 9f ae 7b bd c5 dd b3 bc
       -0.1756596 0.26841575 -0.06144583 -0.021956334
0001b0 d6 a2 4c 3e b1 c4 20 be 3d f4 65 be c1 1b 8e be
       0.19983992 -0.15700032 -0.22456451 -0.2775555
0001c0 7d 6a 46 be fe 24 92 bd ff 71 8c 3e 74 49 70 bd
       -0.1937656 -0.07135962 0.27430722 -0.0586638
0001d0 78 a6 41 3d 51 ec 49 be 40 67 47 3e df 26 dd 3d
       0.047277898 -0.19719054 0.1947298 0.1079843
0001e0 43 d0 99 be f2 ef 8e bd 76 01 6f 3e bd f6 7a 3d
       -0.30041704 -0.0697936 0.23340401 0.061270464
0001f0 31 b6 6e 3d 4c 7c 1e 3e f7 d8 90 be 58 7c 30 bd
       0.05827922 0.15477103 -0.2829053 -0.043087333
000200 a4 bc 8e be 81 0d d4 3c d7 59 83 3e 95 b8 49 3d
       -0.27878296 0.025885345 0.2565448 0.049248297
000210 ee 85 5f 3e 24 0c 99 3e 87 b7 0a be 67 7a 16 be
       0.21828434 0.29892075 -0.13546573 -0.1469513
000220 dc 00 0e 3e b1 fe 31 be 68 3b d0 3d 7b 81 59 be
       0.13867515 -0.17382313 0.10167581 -0.21240799
000230 a5 75 8b 3e d5 9d 34 3d 04 92 d9 3d 90 6a fb bd
       0.27238193 0.044095833 0.106235534 -0.122761846
000240 a2 52 fc 3d 73 c0 88 3e ce d7 7e bc cd 27 86 3e
       0.123204485 0.26709327 -0.015554382 0.2620224
000250 dd 2a 83 3e 0e 3b 56 bd 21 a7 5c be 07 8c 32 bd
       0.2561864 -0.052302413 -0.2154813 -0.04359057
000260 e3 6b 9e 3d e0 c6 85 3e 83 da d8 bd b6 51 94 3e
       0.077354215 0.26128292 -0.10588553 0.2896859
000270 65 81 29 bd 13 54 cc bd 90 fa 26 be 6e 36 87 be
       -0.041383166 -0.099769734 -0.1630652 -0.26408714
000280 96 2f 44 be d3 9c 6e bd 46 2a 05 be e4 62 3d bd
       -0.19158778 -0.058255028 -0.13004407 -0.046236888
000290 f9 8f 46 3e c8 a9 16 be 56 88 51 3e 38 91 0c 3e
       0.19390859 -0.14713204 0.20462164 0.13727272
0002a0 aa 2d 5f 3d d9 ad 1f be b2 a4 a7 3d 88 1d 94 3e
       0.054486908 -0.15593661 0.0818571 0.2892878
0002b0 a6 de 97 be 30 19 61 3e 1b 4d 7a be 85 d2 5f bc
       -0.29662055 0.21982265 -0.24443476 -0.013661032
0002c0 fe 89 34 be 04 68 8c 3e 25 8d b4 bc 01 30 8a be
       -0.17630765 0.27423108 -0.02203996 -0.2698975
0002d0 3f d4 14 be ad 34 8f 3d 9f fd 45 be 7a 2e 40 be
       -0.1453409 0.06992469 -0.1933503 -0.1876773
0002e0 64 23 88 be 66 b1 da bc 2f 89 90 be 28 ea 00 3e
       -0.265895 -0.026695918 -0.28229663 0.12589324
0002f0 a8 3f f1 bc 80 82 53 be 29 b8 30 3e 01 09 be 3d
       -0.029449299 -0.2065525 0.17257752 0.09279061
000300 29 de 0d 3d 9d 36 15 be b4 4d 39 3e 60 c7 13 be
       0.034635697 -0.14571615 0.18096048 -0.14431524
000310 2e 91 ba bc 1e 98 82 be 5c 38 fd bc b0 69 88 bd
       -0.022774305 -0.2550668 -0.030910663 -0.06660783
000320 9a a5 62 be e6 ee 5d 3d b0 0a 92 3e 2a 0d c8 bd
       -0.22133484 0.05418291 0.2852378 -0.09768136
000330 ee 29 68 bd 46 1a 7e be 43 ce 40 bd d5 bd 4c 3e
       -0.056680612 -0.2481471 -0.047071707 0.1999429
000340 e2 3e 1b be 99 ba 3a be 97 a3 fb 3d 1a 72 88 bd
       -0.15160707 -0.18235244 0.12287062 -0.06662388
000350 71 db bd bd 4d c2 e7 3d f7 5b 82 be af 73 13 be
       -0.09270371 0.11316357 -0.2546079 -0.14399599
000360 10 48 96 3e f4 b0 86 bd 1a 82 9d 3e fb 78 d3 3c
       0.29351854 -0.0657672 0.30763322 0.025814524
000370 ae 76 5b bc 03 85 1a 3e af d9 5f 3e 0c 2b 8c be
       -0.013394995 0.15089802 0.21860383 -0.27376592
000380 95 39 5a 3e ce 5c d7 bd 48 a4 8e be 90 23 94 3e
       0.21311028 -0.10515748 -0.27859712 0.28933382
000390 03 3a c5 3c 66 09 a3 bd 05 e8 d1 bd 05 6a 46 be
       0.024075514 -0.07960777 -0.10249332 -0.1937638
0003a0 8a 53 8d be 6c 90 04 3e 7f 55 40 be 36 38 29 be
       -0.27602798 0.12945718 -0.18782614 -0.16525349
0003b0 3e 59 96 3d 88 e8 46 3d 1d cc c1 3d 39 92 30 3d
       0.0734124 0.048561603 0.0946276 0.0431082
0003c0 d8 d1 37 be f7 79 12 be 38 75 92 bb 67 c1 af 3d
       -0.17951143 -0.14304338 -0.00446954 0.085818104
0003d0 57 b5 20 bd 6f 75 5e 3e 63 6e 6f 3c 4c 37 4d 3d
       -0.03923544 0.21724485 0.014613721 0.050101563
0003e0 e8 b1 33 be cf b3 83 be 8f 7b d9 3d 07 ae 26 be
       -0.17548335 -0.2572312 0.1061927 -0.16277324
0003f0 2d b1 fe 3a a3 e8 7a 3e dc de f4 3c 5c c3 a1 bd
       0.0019431465 0.24502806 0.029891424 -0.0789859

transformer_encoder.layers.0.self_attn.in_proj_bias f4 [48]
000000 cd 14 51 bb ca 7c ef 3a ff c3 f9 bb 56 f5 ad ba
       -0.0031903267 0.0018271443 -0.0076222415 -0.0013271968
000010 d9 6b ba 39 b2 28 87 3c 89 91 24 3a 71 1a 0d 3c
       0.00035557037 0.016498897 0.000627779 0.008612261
000020 d1 eb 08 bb 88 5a e9 3b 2f 6d 03 3c 27 d6 97 bc
       -0.002089251 0.007121388 0.008021637 -0.018534733
000030 65 c6 8c bc 66 8a 2c bb db 49 9f bb 26 ee 1e bb
       -0.017184446 -0.002632761 -0.004861099 -0.0024250834
000040 aa f7 01 ba 45 62 b4 b9 55 a2 f9 39 be 19 44 b9
       -0.00049578643 -0.00034405492 0.00047613928 -0.00018701606
000050 cc d1 b5 b9 24 44 9f b8 6c 4c 2e 39 4a dc 0e b9
       -0.0003467932 -7.594403e-05 0.00016622402 -0.0001362424
000060 a0 06 89 38 9c bd 0e b8 74 b8 1b 38 98 57 63 39
       6.533903e-05 -3.4032026e-05 3.7126665e-05 0.00021681038
000070 0d 94 02 b9 1f 7f 97 39 4d b2 8d 38 d9 84 b4 b7
       -0.0001245292 0.00028895677 6.756615e-05 -2.1519534e-05
000080 87 5b 71 3a c9 59 ad bb cf 5c 57 3c ac de d5 3b
       0.0009207059 -0.0052902442 0.013144686 0.0065267887
000090 a8 98 bc ba 8c 88 5d 3c 1b d8 41 3c da a2 5a bb
       -0.0014388757 0.013521325 0.011831309 -0.0033361227
0000a0 84 c9 a6 bb bf 12 cf bb 88 a0 91 bb b5 ad 07 3c
       -0.0050899405 -0.0063193734 -0.0044441856 0.008281161
0000b0 63 53 45 3c 18 c0 c7 bc 63 50 f3 3b 6d a9 5d 3d
       0.012043807 -0.02438359 0.0074253543 0.054116655

transformer_encoder.layers.0.self_attn.out_proj.weight f4 [16, 16]
000000 f3 15 f6 3d 82 32 0a 3d 27 e4 89 be 12 0a fb 3b
       0.12015905 0.033739574 -0.2693188 0.0076611126
000010 53 40 8e 3c 23 51 0d 3e 7f ac b5 3c a4 e0 25 3e
       0.017364657 0.13800482 0.02217698 0.16198975
000020 a9 71 33 3e 8b 3b 40 bd cc bb de 3d d4 ec 04 be
       0.17523827 -0.046931785 0.10875663 -0.12980968
000030 04 fd a3 3c b6 05 08 be 3d 8d 49 3d 68 96 bd be
       0.020018108 -0.13283429 0.04920696 -0.37028813
000040 e3 6b 51 3e f8 ed 86 3c 32 4e 55 3e 9e c4 07 3c
       0.20451312 0.016470894 0.2083061 0.008286623
000050 3c 77 7e be 72 e6 67 3e 1c 54 42 be a3 19 1d be
       -0.24850172 0.22646502 -0.18977398 -0.15341811
000060 14 2a 70 3e 20 9f f4 bd 34 4f 23 3e bb f1 26 3d
       0.23453552 -0.11944413 0.15948182 0.040757876
000070 a9 63 c1 bd 80 94 31 be af 13 62 3e 9f b0 77 39
       -0.09442837 -0.17341805 0.22077821 0.00023621552
000080 8a 61 35 3d de e6 0b 3e c1 9f 09 3e af 78 f4 bd
       0.044282474 0.13662288 0.13439848 -0.11937081
000090 ba a8 e0 3d b6 78 b1 bc 93 c1 21 bd e3 fd 2b bd
       0.10969682 -0.021664005 -0.039491247 -0.041990172
0000a0 45 23 a9 bd b3 65 18 be 5e 53 50 be 77 13 df bd
       -0.0825868 -0.14882545 -0.20344302 -0.108923845
0000b0 26 a7 9f 3d da 43 c7 3d 0b 47 5d be e8 5a 87 be
       0.07795553 0.097297385 -0.21609132 -0.26436543
0000c0 4a 04 b3 3c 99 5e ae 3d 03 93 7c bc c5 6e 0a 3e
       0.021852631 0.08514137 -0.01541591 0.13518818
0000d0 c2 6f 85 3e c2 3c f4 3d 45 86 13 3e b2 79 09 3e
       0.26061827 0.11925651 0.14406689 0.1342533
0000e0 cf 09 78 be 05 f9 85 3e eb 48 06 be 58 ef 99 bd
       -0.24222492 0.2616655 -0.13113753 -0.07516354
0000f0 bd b5 36 bd ed 53 60 be 44 ec 71 3d 19 f8 da 3d
       -0.044606913 -0.21907015 0.05906321 0.10691852
000100 20 6a 18 3d e3 ad 50 3e 2f 09 23 3e 14 95 75 be
       0.037210584 0.20378833 0.15921472 -0.2398265
000110 9a a6 87 bd fe 26 93 3d f2 44 80 bd fd 9b de 3b
       -0.066235736 0.071851715 -0.0626315 0.0067934976
000120 4f c6 33 3c ad 6f 35 be d4 3b d1 3d 6a 44 c6 bd
       0.010972573 -0.17718382 0.102164894 -0.09681018
000130 97 22 18 3b 8f f4 51 bd b6 69 15 3e 5a 44 18 be
       0.0023213977 -0.05125862 0.14591107 -0.14869824
000140 2e ea ad 3d b1 57 3a be d5 03 73 3d 1b a1 31 3e
       0.08491932 -0.18197514 0.059329826 0.17346613
000150 1c e3 2c 3d 21 e5 27 3d 85 90 66 3d 88 f9 1d be
       0.042208776 0.04099 0.05629017 -0.1542722
000160 3c c3 6b be bc 02 39 be c3 17 72 bc 60 05 29 3e
       -0.23023695 -0.1806745 -0.014776173 0.16505957
000170 03 ae 33 3c 72 8d 29 be e0 c9 44 3e 8e 68 6b 3e
       0.010966781 -0.16557863 0.19217634 0.22989103
000180 df 8d 8e bd 3a 12 3f bd 48 ce 58 be 06 ee d2 3d
       -0.069606535 -0.04664824 -0.2117244 0.102993056
000190 b9 2d bc 3d de 88 ee bc b9 e0 8d bd d4 1d 86 bc
       0.091884084 -0.029117998 -0.06927628 -0.016371645
0001a0 a7 2c 5e 3e a6 94 6e 3e d3 16 2a be e3 be 45 3e
       0.21696721 0.23298892 -0.16610269 0.19311099
0001b0 4a ef 55 3e 8c 7c f0 3d 6f 85 6a 3d 0c c9 75 be
       0.20892063 0.117425054 0.05725616 -0.24002475
0001c0 0d 2c 9f bd 37 65 41 be 79 e6 9f bc 89 69 13 bb
       -0.07772074 -0.18886267 -0.019519078 -0.0022493324
0001d0 62 06 13 3c 05 38 f1 bc 1a d9 25 be 1c 45 5f be
       0.00897369 -0.029445658 -0.16196099 -0.21803707
0001e0 2b 19 e7 bd bc 56 36 3e a6 b1 31 3e c1 1c 15 3e
       -0.11284097 0.17806524 0.17352924 0.1456175
0001f0 ed 36 2b 3d b9 d2 3c 3e 5e e7 04 3e dc c8 4c be
       0.04180043 0.1843976 0.12978885 -0.19998497
000200 c8 8a 85 bd 6d b7 c9 bd dc 38 f9 bd 5e 4f ff 3d
       -0.06520611 -0.09849439 -0.12169048 0.1246631
000210 a3 21 b0 3d 52 04 e3 3c 4a 3b 44 3e 6d 7a 05 be
       0.08600166 0.027712021 0.19163242 -0.13034983
000220 bf e3 68 3e b1 c0 70 3d a9 aa 54 3e 0c f9 81 bd
       0.22743128 0.058777515 0.20768227 -0.0634633
000230 30 08 e1 bd 2f 1a 31 be 99 77 c4 bd de 51 36 be
       -0.1098789 -0.17295144 -0.09593124 -0.17804667
000240 59 76 00 be 47 5a e0 bd 2d 1c 64 3e 9c ea 86 bc
       -0.12545146 -0.10954719 0.22276373 -0.016469292
000250 98 0e 18 3e 6c 85 79 bd e1 75 06 be b5 7f c2 bd
       0.14849317 -0.060918257 -0.13130905 -0.094970144
000260 f6 fd 16 3e dd ab 44 3e be e1 36 be 22 7a 21 3e
       0.14745316 0.19206186 -0.17859551 0.15769246
000270 1c 47 4b 3e 0f 0e 6e be 75 11 70 3e b8 56 18 3e
       0.19851345 -0.2324755 0.2344416 0.1487683
000280 d3 5c 6c be f6 ba af bc 16 f9 68 3e a6 65 0c 3e
       -0.23082285 -0.021451455 0.22751269 0.13710651
000290 66 b1 13 3e 17 10 19 be 8a e4 0b be 90 3c 10 be
       0.14423141 -0.14947544 -0.136614 -0.14085603
0002a0 55 71 20 3e fb bd eb 3d 02 13 a7 3c 8e ab 21 bd
       0.15668233 0.11510845 0.020394806 -0.039470248
0002b0 88 5d 4f be d4 f3 f3 3b a6 03 74 be 59 24 b2 bd
       -0.20250523 0.007444838 -0.23829517 -0.08698339
0002c0 c7 a9 5a 3e d7 1e 22 bd 4a f1 10 3e e8 4c c4 bd
       0.21353827 -0.039580192 0.14154544 -0.09584981
0002d0 63 43 8e bd c3 62 5b be 32 77 62 3e 46 55 67 be
       -0.06946447 -0.21424393 0.22115782 -0.22591123
0002e0 a6 c1 ce bd c4 3c 53 be 77 0a 91 3d 3e 94 0c be
       -0.10095529 -0.20628649 0.07082074 -0.13728425
0002f0 8a b5 fd 3c 04 b2 7c bd 3a 04 26 be 1a 61 63 3e
       0.030970354 -0.061693206 -0.1621255 0.2220501
000300 38 9c 5a 3e f8 b8 f1 3c 94 82 1d be 65 ad 3b 3d
       0.21348655 0.029507145 -0.15381843 0.04581966
000310 3d 56 0b be 11 ed c8 3d 98 e3 52 3e 2f 72 17 3e
       -0.13607116 0.09810842 0.20594633 0.14789651
000320 be 4d 27 3e 85 65 e9 3d 4e 4f 58 be 1d e7 74 bd
       0.1633825 0.113963164 -0.21124002 -0.05979072
000330 b4 38 04 be c1 97 eb bd 58 f7 70 be f4 05 e8 3d
       -0.12912256 -0.11503554 -0.23531854 0.113292605
000340 90 9a 6c 3e 3d 28 dc 3d bf f4 68 bd 23 d9 ae 3d
       0.23105836 0.10749862 -0.056874033 0.08537509
000350 05 47 91 3d 69 dc 90 3c cb 29 61 be 72 0f f4 bd
       0.07093624 0.017683225 -0.21988599 -0.119170085
000360 28 02 2d be 2d 22 7d be 24 73 05 3d 20 91 8b 3e
       -0.16895354 -0.24720068 0.03258051 0.2725916
000370 a0 cd cd 3d 50 72 3f 3e 89 b6 f2 bd 71 56 97 3d
       0.100489855 0.1869595 -0.11851222 0.07389534
000380 84 62 4d 3e 5a ac 0f be f6 cf 2e 3e 70 f8 13 be
       0.20057112 -0.1403059 0.17071518 -0.1445024
000390 3a 1a 21 be 12 35 67 be 82 22 41 3e 5c cf d8 bd
       -0.15732661 -0.22578838 0.1886082 -0.10586426
0003a0 02 bb 9c bd b6 77 54 be fd d8 5c 3e 8b ee 70 be
       -0.076528564 -0.20748791 0.2156715 -0.23528497
0003b0 c7 3b 3d 3e 30 11 47 be 21 28 05 3e ac a5 42 bc
       0.18479834 -0.1944015 0.13003589 -0.01188032
0003c0 2b e9 1b 3e e0 5e 3e 3e d1 72 0d be e3 9a 2e 3e
       0.15225665 0.1859088 -0.1381333 0.17051272
0003d0 d8 b6 3a 3e 5e 60 12 3e 66 b0 84 be 4c 8e 6f 3d
       0.18233812 0.14294574 -0.2591583 0.058485314
0003e0 06 fc 2d 3e 26 20 1f 3e 02 82 62 3e 9f e2 fc bd
       0.1699067 0.15539607 0.22119907 -0.12347912
0003f0 af 93 83 3d 95 72 93 bc d3 5d 46 be 3b 8c 8e bc
       0.06424653 -0.017998973 -0.19371729 -0.017400851

transformer_encoder.layers.0.self_attn.out_proj.bias f4 [16]
000000 c7 2a 21 bd 23 68 b9 3b b7 1e 83 bc 95 4e 7e 3c
       -0.039347436 0.005658166 -0.016005857 0.015521665
000010 79 2f af 3b c1 58 7a 3c bb 0e 13 bc c5 81 e4 bb
       0.0053462354 0.01527995 -0.00897568 -0.0069734775
000020 c0 b6 4d 3c 56 d1 9d 3c 25 db 85 bc e1 d1 2b 3c
       0.012555778 0.019264858 -0.016339848 0.010487051
000030 db c1 b0 ba 1e a9 01 bb 54 c5 b8 bb 34 fd 90 bb
       -0.0013485508 -0.001978464 -0.0056387577 -0.0044247154

transformer_encoder.layers.0.linear1.weight f4 [2048, 16]
000000 11 4f 5b be 9e d8 dd 3d da 0c 16 3e 30 51 32 3e
       -0.2141688 0.10832332 0.1465334 0.17413783
000010 78 0e 4e 3e 9c 63 d1 bd 3e 0a 53 be 57 06 24 3e
       0.20122707 -0.10224077 -0.20609376 0.16018043
000020 06 5a 31 be 49 7b 3d 3e ce a2 54 be 6f 8a a7 3d
       -0.17319497 0.18504061 -0.2076523 0.08180701
000030 34 34 51 bd 32 95 84 3d eb a6 e2 3d fd 10 57 be
       -0.051075175 0.06473769 0.11066993 -0.21002574
000040 82 8f 14 be 08 cf af 3c c2 a1 a2 bd 2d b5 85 3d
       -0.14507869 0.021461025 -0.07941009 0.06528697
000050 f5 10 4c 3e 06 d8 86 3d 7f 0c a9 3d 99 9e 28 be
       0.19928344 0.06584172 0.082543366 -0.1646675
000060 7c 2c bd 3d de 7e 33 be 93 d1 10 be e6 54 3f be
       0.09237 -0.17528865 -0.14142446 -0.1868473
000070 9c 0a c7 bb cb 0a 5c be 6e 03 01 be ea 05 4a be
       -0.006074263 -0.21488492 -0.12598965 -0.19728819
000080 e5 6d 43 bc 4e c4 4f 3d c2 4e 3d be 20 fa b2 3d
       -0.011928056 0.05072432 -0.18487075 0.08739114
000090 e9 d6 98 be db 5d 50 3e 6d 33 03 3e c5 7c 02 3e
       -0.29851463 0.20348303 0.12812586 0.12742908
0000a0 4c e2 6d 3e ed 53 70 3e 24 8e 3d 3d f8 79 28 3c
       0.23230857 0.23469515 0.046278134 0.010282986
0000b0 b7 06 9e 3d 40 68 5d be 16 8b 83 3d d3 f0 4f 3e
       0.077161245 -0.216218 0.06423013 0.20306711
0000c0 d2 46 0c be 9d 3d 27 3e 53 17 7a ba 2d 09 de 3d
       -0.13698891 0.16332097 -0.0009540219 0.10841594
0000d0 53 c7 08 3e 3c 3b a3 3d fc 10 31 3e 2d 5e 35 3e
       0.13357286 0.079702824 0.17291635 0.17711706
0000e0 e0 81 20 be 69 63 e7 3d 3c 49 c3 bd f0 f2 0d be
       -0.15674543 0.11298258 -0.09535453 -0.13862205
0000f0 6e 3e 39 3e 1c bc 58 3c fb f6 df 3d e9 51 98 3d
       0.18090221 0.0132284425 0.1093578 0.07437498
000100 93 96 16 be 6a 29 0f be 97 94 2a 3e ea e9 62 3d
       -0.14705877 -0.13980642 0.16658245 0.05539886
000110 a9 96 3b be b9 a9 6f 3e 42 83 1b be db 98 33 3e
       -0.18319191 0.23404588 -0.1518679 0.17538778
000120 df e9 a7 bd 71 fa 2c 3d f4 ac cd bd c2 01 08 be
       -0.08198904 0.042231027 -0.10042754 -0.1328192
000130 e4 e4 87 3c 26 22 72 3c 47 08 b2 3d da 6d 00 bd
       0.016588636 0.014778649 0.08692985 -0.031354763
000140 04 8c da 3d 15 94 68 be 75 c3 72 bd fe 23 24 3a
       0.10671237 -0.22712739 -0.059268434 0.0006261467
000150 2d 99 7f be 36 ad 0a 3e 47 87 3c be 26 4d 2d 3e
       -0.24960776 0.13542637 -0.18410979 0.16923961
000160 61 b5 49 be 8f 31 6f 3e 4c e6 80 3e c9 75 c3 3d
       -0.19698097 0.23358749 0.25175703 0.0954395
000170 7c c2 6b be 94 89 5f 3e ff df 5f 3e cd 3f 68 be
       -0.23023409 0.21829826 0.21862791 -0.22680588
000180 1e c2 1f bd 5c f4 4f 3e d3 34 17 3d c0 a8 24 3e
       -0.039003484 0.2030806 0.03691561 0.16079998
000190 f5 09 10 3e bf 2c 74 be 4f 23 27 be aa 2a 6c 3b
       0.14066298 -0.23845194 -0.16322063 0.0036036172
0001a0 2e 5d 3f 3d 79 19 63 be 16 15 5e be ab 7b eb 3d
       0.046719722 -0.22177686 -0.21687731 0.11498197
0001b0 fd c9 8e 3d d1 ae 50 be ec 69 39 3e 53 21 f0 3c
       0.0697212 -0.20379187 0.18106812 0.029312765
0001c0 46 f7 dd 3d cc c7 5a 3e b4 eb 69 be 2c 8b 12 be
       0.10838179 0.21365279 -0.2284382 -0.14310902
0001d0 6f 38 00 be e9 bf 51 3d 60 13 29 3e 33 69 6a 3e
       -0.12521528 0.05120841 0.16511297 0.22891693
0001e0 73 2d eb bd c0 61 15 3e f0 7c d9 bd ea bb 3a be
       -0.11483278 0.1458807 -0.10619533 -0.18235746
0001f0 2d 30 4b 3e 62 f4 38 be 6b 99 5d 3e 96 45 88 3e
       0.19842596 -0.18061975 0.21640556 0.2661559
000200 db e4 86 bd d5 20 e9 3d 2a 08 fe 3d f4 67 2b 3d
       -0.065866195 0.11383215 0.12403901 0.041847184
000210 96 76 44 3e 72 d4 3e 3e 4c 9e db bd 67 3a 12 3e
       0.19185862 0.18635729 -0.10723552 0.14280091
000220 98 27 50 3e c2 a6 56 be 14 ec 71 bd b3 5f 95 bb
       0.20327604 -0.2096205 -0.059063032 -0.0045585274
000230 11 17 3d be a2 b0 c8 3d eb 44 6b 3e 4e c6 8c bd
       -0.1846583 0.09799315 0.22975509 -0.06873761
000240 55 a9 17 bd 64 d3 67 3d 17 5e 74 bd d8 ae 5b bd
       -0.037026722 0.056598082 -0.059660044 -0.05363354
000250 a2 e2 19 3e b4 b5 32 be ab ad fa bd 1d 07 5f 3e
       0.1502786 -0.17452127 -0.12240156 0.21780057
000260 f9 c8 5b bc 37 86 2c 3e f8 63 a2 3d 51 44 68 be
       -0.013414615 0.16848074 0.07929224 -0.2268231
000270 65 c8 6a 3c 83 72 60 3e 86 91 87 3d 83 ab 2d be
       0.014330004 0.21918683 0.06619553 -0.16959958
000280 3f 3a d8 bd b8 4a 59 3e d0 cf cb 3d 63 5c 04 3e
       -0.105579846 0.21219909 0.099517465 0.12925868
000290 5d 45 d1 3d cd 21 04 be 7c dd da bd fb 1b 0a 3d
       0.10218308 -0.12903519 -0.10686776 0.03371809
0002a0 39 ab 18 3e ae 42 7c be 62 0f 57 bc e9 da 6d be
       0.14909066 -0.24634811 -0.013126226 -0.23228039
0002b0 32 39 7f be 8d 7b 3e 3e 26 c8 40 3c 0d ae 4f be
       -0.24924162 0.18601818 0.011766469 -0.20281239
0002c0 0a 39 57 be e7 d0 1d be ac 35 88 bd b6 25 21 be
       -0.21017852 -0.15411721 -0.06650862 -0.15737042
0002d0 df 4f 45 be ee 41 56 3e 02 43 b2 3d 55 b0 0f 3d
       -0.1926875 0.20923588 0.08704187 0.035080273
0002e0 ca 1b 71 3e 47 03 01 bd 92 bd 2f 3e 51 58 68 be
       0.23545757 -0.031497266 0.17162159 -0.2268994
0002f0 8b 4c 54 3e b5 1b 92 bc 5d 13 dc bd 10 75 94 bd
       0.20732324 -0.017835477 -0.10745881 -0.072488904
000300 dc 0d 43 3d 43 13 01 be 54 9c 0f 3e 57 d5 ea 3d
       0.04762064 -0.12605004 0.14024478 0.114664726
000310 83 d8 44 be 45 4a 42 3e 38 94 da bd 65 c9 50 3e
       -0.19223218 0.18973644 -0.10672802 0.20389326
000320 cf 7e 6d 3e 0b e3 74 bc 97 14 11 3d 0f 2c 71 3e
       0.23192905 -0.014946709 0.035420027 0.23551963
000330 c2 08 40 3e ac ef 42 3e 18 eb 21 bd eb 89 06 be
       0.18753341 0.1903674 -0.039530843 -0.13138549
000340 2f 69 b6 bd 89 56 e9 3d d5 af 06 3e 4d dd 52 3d
       -0.08906781 0.113934584 0.13153012 0.05148058
000350 c9 3b cb bd 5e d4 d8 bd c6 e2 6e be ff 64 35 3e
       -0.099235125 -0.10587381 -0.23328695 0.17714308
000360 b3 8b 37 bc 12 ac 4b 3e 4d c6 51 3d 6f 58 6a 3d
       -0.0112027405 0.19889858 0.051214505 0.057213243
000370 cf 92 ef 3d f6 10 86 bd 47 8a 56 be 78 ce 4d be
       0.116979234 -0.06546204 -0.20951186 -0.20098293
000380 c5 3c f9 3d 4b a0 82 bd 46 39 b7 3d 52 bf b1 bd
       0.12169794 -0.0637823 0.08946471 -0.086790696
000390 1b fb 29 be 8f 02 2a 3e e7 df 3a bd 79 03 35 be
       -0.16599695 0.16602539 -0.045623686 -0.17677106
0003a0 e2 7f 3f be 88 e4 27 3e ee 5c 1f bd 83 1a 83 3e
       -0.18701127 0.16395772 -0.038906984 0.25606164
0003b0 33 63 89 3e bc bb 37 bd b9 68 12 3e 87 42 35 3e
       0.26833495 -0.04485677 0.14297761 0.1770116
0003c0 6a 2f cd 3d ec 0e cf 3d 3f b8 40 be 83 9f d2 3d
       0.10018809 0.10110268 -0.18820284 0.10284331
0003d0 9e db 11 3d 76 e9 08 3e 14 c3 43 3e 51 8d ea 3b
       0.035609834 0.13370308 0.19117385 0.0071579595
0003e0 9e dd 17 3e 84 53 8e bd 94 ce 4f 3d 5c ea e9 3d
       0.14830634 -0.06949523 0.050734118 0.11421654
0003f0 cb bb d8 3b b8 bb 67 be 44 bf 32 3d 6b 89 7e 3e
       0.0066141835 -0.22630203 0.043639436 0.24857108

transformer_encoder.layers.0.linear1.bias f4 [2048]
000000 e6 64 03 3e 01 43 fe bb 3a b2 9e bc 24 bd 33 3e
       0.12831458 -0.0077594523 -0.019372094 0.1755262
000010 b3 c0 39 be cd 90 b8 bd ea 6f a3 3d f4 34 76 3e
       -0.18139915 -0.090119936 0.0798033 0.24043638
000020 3a 0a e3 3d fb a4 7c be 1c 2b 14 3d 7e 88 05 3e
       0.11085935 -0.2467231 0.036173925 0.13040349
000030 50 eb 5f 3e 3e 8d 1d 3e 6c 24 27 be 63 bc 19 3e
       0.21867108 0.15385911 -0.16322488 0.1501327
000040 41 17 e0 3d 39 51 1c be d2 ec 2f be d2 ca 04 3c
       0.10941935 -0.15265359 -0.17180184 0.008104997
000050 d4 37 6c 3c 04 4e e4 bd 85 d7 26 be 8c 3a 65 3c
       0.014417607 -0.11147693 -0.16293152 0.013991009
000060 d4 85 73 be f5 7a 09 3e a3 3c 2f 3e c7 7c 29 3e
       -0.2378152 0.1342581 0.17112975 0.16551505
000070 f3 d2 94 bd 1b 41 6a be 89 b3 3d be 20 24 16 3e
       -0.07266798 -0.22876398 -0.18525518 0.14662218
000080 9b b9 2d bd b7 76 21 3e dc 38 a0 3c c8 85 12 3e
       -0.042413335 0.15767942 0.019558363 0.14308846
000090 64 ca d9 3d e0 f7 6f be e8 2c d4 3d 43 fa 3b be
       0.10634306 -0.234344 0.10360128 -0.18357186
0000a0 ae a5 35 3e b2 23 51 be 3a 6a e4 bd 0a 13 7e 3e
       0.17738983 -0.20423773 -0.111530736 0.2481195
0000b0 b3 a6 45 bc b5 27 c2 bd 8c 54 54 bb b2 93 9a 3c
       -0.01206367 -0.0948023 -0.0032399027 0.018869255
0000c0 ce 56 74 3d 36 33 77 3d ae 3f 85 3e 51 74 c5 bb
       0.059653096 0.060351573 0.26025146 -0.006025829
0000d0 15 41 41 bd 85 60 13 be ba 9b 28 be 23 9c 4e bc
       -0.047181208 -0.14392288 -0.16465655 -0.012610468
0000e0 24 fc ab bd bd 60 31 3e 0f 90 7e be 8d 43 50 be
       -0.083977014 0.17322059 -0.24859641 -0.20338269
0000f0 58 54 85 be 94 1a 00 be 78 b4 76 3d 73 53 a5 bc
       -0.26040912 -0.12510139 0.060230702 -0.020181393
000100 b1 d1 57 be af 71 87 3e e9 b0 cb ba d4 d0 cb 3c
       -0.21076085 0.2645392 -0.0015540394 0.02487985
000110 a5 02 c9 bd 4e 16 f5 3d ba 58 51 be c5 ac 70 3d
       -0.098149575 0.11967145 -0.20444003 0.058758516
000120 66 4a 11 be ca b7 5d 3d 1c da 6a 3e f1 04 8b 3e
       -0.14188537 0.054130353 0.22934765 0.27152207
000130 5e 37 8b 3c e5 db e3 bd e0 11 14 be 09 b1 87 bd
       0.016994175 -0.11125926 -0.14459944 -0.06625564
000140 2a 15 bb 3d 70 68 b2 3d 84 91 09 bd 94 f8 52 bc
       0.09134896 0.08711326 -0.03358604 -0.012876648
000150 76 b4 18 3c cd 1e fb bd 91 8c 7d be 56 e1 81 be
       0.009320369 -0.12261734 -0.24760653 -0.2536723
000160 74 c3 26 3e 3c d3 5e bd b8 0c d6 bd b5 e0 67 bd
       0.16285497 -0.054400668 -0.10451645 -0.05661078
000170 8f 93 81 be 2c ec 5b 3e 43 08 b4 3c 40 78 1a be
       -0.2530789 0.21476811 0.021976596 -0.15084934
000180 59 50 55 3e e8 5c 32 3e 4a 30 51 be 9f a0 0c 3c
       0.20831431 0.17418253 -0.20428577 0.008583217
000190 e1 32 60 be b2 ae 33 3d d5 b8 06 3e e6 da fb 3d
       -0.21894409 0.043867774 0.13156445 0.12297611
0001a0 c1 be 12 3e 6d fe e6 bc 53 1f 58 be 6e f1 4e 3e
       0.1433058 -0.028197492 -0.21105699 0.20209286
0001b0 cc 6a 5e be 5f 50 f5 bd de 8a 5e be 4d d5 14 be
       -0.21720427 -0.1197822 -0.21732661 -0.14534493
0001c0 4a 91 98 3d aa de f3 3d 59 05 e4 3d d1 de 74 3e
       0.07449587 0.11907704 0.111338325 0.23913123
0001d0 fc 0d 49 3d 93 60 b0 3d ce 2f a6 bd 3c b3 68 be
       0.049085602 0.0861217 -0.08114587 -0.22724622
0001e0 8c 0e 51 3e bb 3d b1 3c 3d 9f c3 3d 51 d8 11 3e
       0.20415705 0.02163588 0.09551857 0.14242674
0001f0 71 e8 42 bd 51 86 18 bd 1e ae 2c 3d b4 3d 47 be
       -0.047584955 -0.03723747 0.04215824 -0.19457132
000200 55 34 58 3e 7b 2e 5f 3e 7c 61 85 3e fa 4d 19 be
       0.21113713 0.21795075 0.26050937 -0.14971152
000210 27 31 08 3e bd e6 55 3e c7 62 3a 3d 8d b2 60 bd
       0.133 0.20888801 0.045504358 -0.05485778
000220 32 b5 7e 3d bd 97 08 be e6 19 77 3e 8a 24 79 bd
       0.06218452 -0.13339134 0.24130973 -0.060825862
000230 02 3c c3 bd bf 3d f0 bd 61 04 2f be 43 3d 6d 3e
       -0.0953293 -0.11730527 -0.17091514 0.231679
000240 27 7a ef bd 5d 0d 08 3e ae d7 33 3d 3d 61 25 be
       -0.116932206 0.13286348 0.04390686 -0.16150375
000250 f9 71 81 3e 38 65 61 be 46 4a 01 be ac 47 e0 3d
       0.25282267 -0.22011268 -0.1262599 0.1095117
000260 5b 72 78 3e 83 cb d7 bd 5c 82 87 be 8d e3 f0 bd
       0.24262373 -0.10536864 -0.26466644 -0.11762152
000270 93 fa 37 3e d8 bd a2 bc cd bc a6 bd 77 b4 a6 3d
       0.1796668 -0.019865915 -0.0814148 0.0813989
000280 e3 fe 57 3e 44 9d 38 3e 9d ac bb 3d 9d b0 06 bd
       0.21093325 0.18028742 0.09163783 -0.032883275
000290 6a f5 11 3e e0 70 89 3d 73 9b f8 3d 2b ca 18 3e
       0.14253774 0.06710982 0.121390246 0.14920871
0002a0 d6 d0 54 be 31 bf 3e 3e fe 21 1f 3e 07 7b 09 bd
       -0.2078279 0.18627621 0.1554031 -0.033564594
0002b0 b9 57 5a 3e fb a4 1b be 10 cc 50 bd 34 6c 40 be
       0.21322526 -0.15199654 -0.05097586 -0.18791276
0002c0 d6 89 75 3e e3 30 7a be ee e1 27 3e fd b9 87 be
       0.23978361 -0.24432711 0.16394779 -0.26509085
0002d0 9c f7 34 be 49 ca 93 3d de de 74 be 3f 14 08 3e
       -0.1767258 0.07216317 -0.23913142 0.13288973
0002e0 28 63 b4 bd 79 0f 6d be 7b ce 4f 3e cd 78 0f bd
       -0.08807975 -0.23150434 0.2029361 -0.035027314
0002f0 ce 75 9e bd a8 36 38 be 9a 31 44 3e 0c ac 81 bb
       -0.07737313 -0.179896 0.19159546 -0.003957277
000300 77 48 5e bd 43 e1 ce 3c 9a 7f 58 be c5 2d d1 3a
       -0.054268327 0.025253898 -0.21142426 0.0015959075
000310 78 8f 61 be ce c1 36 3e c8 97 db 3c f2 40 be 3d
       -0.22027385 0.17847368 0.026805773 0.09289731
000320 9f cf 6e bd 2f ee 3c 3e 9d ad 1e 3e bf 24 fb bd
       -0.05830347 0.18450235 0.15495916 -0.12262868
000330 1c 67 15 bd f4 44 cf 3d a1 55 fc bd e8 9a 2e 3e
       -0.036475286 0.10120574 -0.1232102 0.1705128
000340 55 8d d0 bb 52 19 41 be 1f 2d 4d be 8c a1 38 3e
       -0.0063645043 -0.18857315 -0.20036744 0.18030375
000350 9c 61 e3 3c 8b 01 7b bd d0 f0 81 bd a8 3c 23 bd
       0.027756505 -0.06128077 -0.063447595 -0.03985277
000360 0d 6f 5a be 04 f6 2b 3d bd 14 99 bd 3e 14 57 be
       -0.21331425 0.041982666 -0.07474659 -0.21003816
000370 b7 36 c7 3d 4a ea 42 3c a4 e4 7a be 0f 39 49 3e
       0.09727233 0.011896679 -0.24501282 0.19650672
000380 c4 1f 5a be e5 62 8f bd 6a 8c c7 3d f9 36 3d bd
       -0.2130118 -0.070012845 0.09743579 -0.046195004
000390 17 a1 63 3e 20 55 4f 3e b8 13 15 3e 58 8b 48 3e
       0.2222942 0.20247316 0.14558303 0.19584405
0003a0 b8 88 f6 3d 94 67 05 bd 6a ec 9a bd f5 6a ac bd
       0.12037796 -0.032569483 -0.07564624 -0.08418838
0003b0 e1 31 bd 3c a1 68 d1 3d 58 9f f7 3d a4 85 77 3d
       0.023095073 0.102250345 0.12090939 0.060430184
0003c0 b4 10 c7 3d e1 c6 f1 3c 02 fc f8 3d 7a ce 29 be
       0.09719983 0.029513778 0.12157442 -0.16582671
0003d0 9d 8b 67 3d ad 7e 86 3e 44 97 24 be 2f 13 9a bd
       0.05652963 0.2626852 -0.16073328 -0.0752319
0003e0 59 56 a1 3d 7e 2e 5b be a8 b5 3c 3e 33 e3 a0 bd
       0.07877798 -0.21404454 0.18428671 -0.07855835
0003f0 0e 07 1f 3e 39 1d 8d 3d 3a f5 3e bd 80 88 97 3d
       0.15530035 0.068903394 -0.046620585 0.07399082
