embedding/codes_model.pth (torch, 584526 bytes, 33 tensors)

cls_token f4 [1, 16]
0	0xbf6fe301	-0.93705755
1	0xbe48a0d2	-0.19592598
2	0xbf636302	-0.8882295
3	0x3f622802	0.883423
4	0xbfa85193	-1.3149894
5	0xbd55a1fc	-0.052156433
6	0x3f54d7eb	0.83141965
7	0x403747c8	2.8637562
8	0x3c8a1840	0.016857266
9	0xbe46aeb9	-0.19402589
10	0x4005463f	2.0824125
11	0x3fb742a5	1.4317213
12	0xbf9a6252	-1.2061255
13	0x3fc3c15d	1.5293385
14	0x3ea83417	0.3285224
15	0xbfbc12ee	-1.4693277

mask_token f4 [16]
0	0x3f38dd3d	0.7221258
1	0x3f784dd3	0.9699375
2	0x3dce0da2	0.10061194
3	0xbdb4ddb4	-0.08831349
4	0xbfe98b1e	-1.824558
5	0xc015df11	-2.34174
6	0xbf88e565	-1.0695006
7	0xbed16b41	-0.4090214
8	0x3f75f593	0.9607784
9	0xc006fb1a	-2.109076
10	0xbed6fa65	-0.4198791
11	0x3ec91a4c	0.39277875
12	0xbf8d433e	-1.1036146
13	0x3f0e3c60	0.55560875
14	0x3e334fce	0.17510912
15	0x3fe27518	1.7691984

window_encoder.value_embedding.weight f4 [4, 1]
0	0xbf19714c	-0.599385
1	0xbe8c7a4d	-0.27437058
2	0xbef350c8	-0.4752257
3	0xbe838305	-0.25685897

window_encoder.value_embedding.bias f4 [4]
0	0x3f41c404	0.7568972
1	0x3e9cb84c	0.30609357
2	0x3f823531	1.0172483
3	0x3f19e59d	0.6011599

window_encoder.fc.weight f4 [16, 4]
0	0x3eac8b94	0.3370024
1	0xbdafb6db	-0.08579799
2	0x3de0f966	0.10985069
3	0xbf358abd	-0.7091482
4	0xbd5e4595	-0.054265577
5	0xbdf3aaa3	-0.11897781
6	0x3ed29f5b	0.41137204
7	0xbeae6095	-0.3405806
8	0x3d947efd	0.072507836
9	0x3efcb4cc	0.49356687
10	0xbee7c19e	-0.45264906
11	0x3ea8f930	0.33002615
12	0x3ebb0a9f	0.3653154
13	0x3dc8d5b5	0.098063864
14	0xbec95442	-0.39322096
15	0xbe6b312d	-0.22967978
16	0x3efded83	0.4959527
17	0xbea463ae	-0.321073
18	0xbe9a27ee	-0.3010859
19	0xbe83c32a	-0.25734836
20	0x3e35f35f	0.1776862
21	0x3ec67bc9	0.38766316
22	0xbd3334d6	-0.04375156
23	0xbea0b55b	-0.31388363
24	0x3e606774	0.21914464
25	0x3ec2eebc	0.38072765
26	0x3ea96012	0.33081108
27	0xbe9ebe06	-0.3100435
28	0xbe645d4e	-0.22301218
29	0xbe0af286	-0.13569078
30	0x3e83179f	0.2560396
31	0x3e442d3b	0.19157879
32	0xbddca2b8	-0.10773224
33	0x3e799400	0.24372864
34	0x3d7ae4c0	0.06125331
35	0xbd02f050	-0.03196746
36	0xbcc960df	-0.024582325
37	0x3d33575f	0.043784495
38	0x3e38892e	0.1802108
39	0xbe9e2b4d	-0.3089241
40	0x3ea04baa	0.31307727
41	0xbec45c72	-0.3835178
42	0x3e799ba0	0.24375772
43	0xbd0c82a0	-0.03430426
44	0xbdfea0e8	-0.12433034
45	0x3ef27aee	0.47359413
46	0x3d4fe37f	0.050754067
47	0xbe9eb063	-0.30993947
48	0xbe3295a7	-0.174399
49	0x3eda9a93	0.42696056
50	0xbe559111	-0.2085612
51	0x3ead4c5a	0.33847314
52	0x3eff4419	0.49856642
53	0xbed127ac	-0.4085058
54	0xbeac6e76	-0.33678025
55	0xbdd3adb7	-0.10335868
56	0x3d45983d	0.04824089
57	0xbecbffd5	-0.39843622
58	0x3cff6d34	0.031180002
59	0x3eccbaf3	0.3998638
60	0xbe892122	-0.2678309
61	0x3d942d52	0.07235207
62	0x3e5f4263	0.21802668
63	0x3ec477d2	0.38372666

window_encoder.fc.bias f4 [16]
0	0x3e0ff1be	0.14057061
1	0x3d6f4f20	0.05842507
2	0x3dfb962d	0.12284503
3	0x3e49936b	0.19685142
4	0x3d26ab76	0.04069086
5	0x3dba11da	0.09085436
6	0xbe8c09de	-0.27351278
7	0xbeaf6405	-0.34255996
8	0xbe73f434	-0.23823625
9	0x3e9c51bb	0.30531105
10	0xbe747b44	-0.23875147
11	0xbef76821	-0.48321632
12	0x3eac0cd3	0.33603534
13	0x3e85f0f5	0.26160398
14	0x3dcc1d92	0.099665776
15	0xbe6aa79c	-0.229155

positional_embedding.weight f4 [331, 16]
0	0xbe1c561b	-0.15267222
1	0xbfdf0591	-1.7423574
2	0xbe6f777f	-0.23385428
3	0x3fbf536c	1.4947333
4	0x3f104703	0.56358355
5	0xbf3b76f1	-0.73228365
6	0x3f0f59c9	0.55996376
7	0x3e175ac0	0.14780712
8	0x3f0f465e	0.55966747
9	0xbfa7659a	-1.3077881
10	0xbee4cfdf	-0.44689843
11	0xc00230a4	-2.0342188
12	0xbed77f7d	-0.42089453
13	0xbf838a49	-1.0276576
14	0xbf4de01e	-0.804201
15	0x3f16b51a	0.5887009
16	0x3feb9d77	1.840743
17	0x3fba086e	1.4533823
18	0x3e8f3893	0.2797285
19	0xbf09cde8	-0.53829813
20	0x3ee0173b	0.43767723
21	0x3f09b12b	0.5378596
22	0xbeac9bd9	-0.33712652
23	0x3f69d429	0.91339356
24	0xbf2f37da	-0.684446
25	0x3f20ae1b	0.62765664
26	0x3ed803e3	0.42190465
27	0xbf698ad5	-0.91227466
28	0x3f820743	1.0158466
29	0xbf1bf693	-0.6092312
30	0xbed6e6cc	-0.4197296
31	0xbf34b90d	-0.70594865
32	0x3ead617f	0.33863446
33	0xbf625748	-0.8841443
34	0xbe9a6fb9	-0.30163363
35	0xbf6081d4	-0.876981
36	0x3ea5ac89	0.32358196
37	0x3e4b003c	0.19824308
38	0xbeb3fc71	-0.35153535
39	0xbf47c929	-0.7804132
40	0xbef81716	-0.48455113
41	0xbe73f950	-0.23825574
42	0xbd2d3267	-0.042284396
43	0x3f9c6007	1.2216805
44	0x3e6c6ba5	0.23087938
45	0x400accd9	2.168753
46	0xbf266051	-0.6499072
47	0xbe1919e5	-0.14951284
48	0xbf27b763	-0.655142
49	0x3f406c83	0.75165576
50	0x3eecc885	0.46246734
51	0x3f7e599f	0.993555
52	0xbeeca2f9	-0.46218088
53	0xbf31d03f	-0.69458383
54	0x3d8b4b64	0.06801489
55	0xbf8ab6ce	-1.0837038
56	0xbf0a4580	-0.540123
57	0x3f1eab73	0.6198036
58	0xbf9819c7	-1.1882867
59	0x3e22be67	0.15892945
60	0xbe1efcca	-0.15526119
61	0x3fb72a36	1.4309757
62	0xbfe321dc	-1.7744708
63	0xbf559892	-0.8343593
64	0x3e6cb810	0.2311709
65	0x3f4ce8f6	0.8004297
66	0x3fd10ad2	1.6331427
67	0x3f152515	0.5825971
68	0xbd7b0027	-0.061279442
69	0xbf228827	-0.63489
70	0xbfc66a39	-1.5501167
71	0x3e9dcb00	0.3081894
72	0x3f23fe70	0.64060116
73	0xbee894c9	-0.45426014
74	0xbf0e90b0	-0.55689526
75	0x3f8d6ecf	1.1049441
76	0xbf28e187	-0.6596913
77	0x3fb7aa52	1.4348853
78	0xbe6f5697	-0.23372875
79	0x3f8f50d2	1.1196539
80	0x3f797133	0.97438353
81	0xbfbc59cb	-1.4714903
82	0x3fb85f10	1.4404011
83	0x3f14ef66	0.58177793
84	0xbe773cac	-0.24144238
85	0xbdae5981	-0.08513165
86	0x3f007b7f	0.5018844
87	0x3f2ef44e	0.6834153
88	0xbf717ef6	-0.9433435
89	0xbf6873f5	-0.90801936
90	0x3f938a66	1.1526611
91	0xbfa1b533	-1.2633423
92	0xbf72e7a5	-0.9488471
93	0x3e488089	0.19580282
94	0xbfeae9fa	-1.8352654
95	0x3f411258	0.75418615
96	0x3ed9c575	0.4253346
97	0x400cbdd1	2.1990855
98	0x3f0c4f41	0.5480843
99	0xbed1cc08	-0.40975976
100	0xbd09650a	-0.033543624
101	0x3f2f275b	0.68419427
102	0xbf6d8f10	-0.9279642
103	0xbea2c2cc	-0.31789243
104	0xbf3b75a2	-0.7322637
105	0xbf09b834	-0.53796697
106	0xbe66bc0d	-0.22532673
107	0x3fc6cf67	1.5532044
108	0xbeb687ec	-0.35650575
109	0xbf28309c	-0.6569917
110	0xbeb77b40	-0.3583622
111	0x3ef9ee44	0.48814595
112	0x3b870cf0	0.0041214153
113	0xbe4e1661	-0.20125724
114	0x3f2acd38	0.6671939
115	0x3fb32fa1	1.399891
116	0x3db5c493	0.08875384
117	0xbebbef70	-0.36706114
118	0xbebc3c38	-0.36764693
119	0x3ea8f6d7	0.33000824
120	0xbf6a8e8d	-0.91623765
121	0x3ee7f894	0.45306838
122	0x3e4a98b0	0.19784808
123	0xbf8cbc81	-1.0995027
124	0x400692b0	2.102703
125	0xbe97b71d	-0.29631892
126	0xbf01f3fd	-0.5076292
127	0xbcea054f	-0.028566984
128	0xbdd0d131	-0.1019615
129	0x3ed30360	0.41213512
130	0xbf06f91a	-0.5272385
131	0xbfe10598	-1.7579832
132	0xbf487280	-0.78299713
133	0xbecf3fe9	-0.40478447
134	0x3f909359	1.1294967
135	0xbf8f669f	-1.1203192
136	0xbfd0e2f4	-1.6319261
137	0x3fb3fe44	1.4061971
138	0xbe05e756	-0.13076529
139	0xbee78225	-0.4521648
140	0xbf916fbd	-1.1362225
141	0x3f332367	0.69975895
142	0x3fec8bad	1.8480126
143	0x3f6d3656	0.92661035
144	0x3fb0eb60	1.3821831
145	0xbff69fef	-1.9267558
146	0x3fab5dcd	1.3388001
147	0x3f606bb4	0.8766434
148	0x3ed52e5d	0.41636935
149	0xbeca317e	-0.39490885
150	0x3f7252c4	0.9465754
151	0x3f40a46f	0.75250906
152	0xbd6fd154	-0.05854924
153	0x3f16fd46	0.58980215
154	0xbecd3d94	-0.40086043
155	0xbf258216	-0.6465162
156	0xbf879c2e	-1.0594537
157	0x3f98a32c	1.1924796
158	0xbf730713	-0.9493267
159	0x400a6d40	2.162918
160	0xbe889abf	-0.26680562
161	0x3f075fc1	0.52880484
162	0xbe66aaf3	-0.2252615
163	0x3f9aed1f	1.2103614
164	0x3f895c7d	1.073135
165	0xbf9040b3	-1.1269745
166	0x3f8f55ac	1.119802
167	0xbf414db5	-0.75509197
168	0x3f8e0db2	1.109793
169	0x3eaaa3ab	0.33327994
170	0xbf217704	-0.6307223
171	0x3f9b6895	1.2141291
172	0x3e2a2861	0.16616966
173	0x3eca3ecc	0.39501035
174	0x3fd02f0d	1.6264359
175	0x3f8cc8e3	1.0998806
176	0x3dfeb463	0.1243675
177	0xbdae52ee	-0.08511911
178	0xbc39402f	-0.0113068065
179	0x3d8aee8b	0.0678378
180	0x3edd3739	0.43206194
181	0x3d40e39e	0.047092073
182	0x40053295	2.0812123
183	0xc020bc87	-2.5115068
184	0xbe8800ba	-0.26563054
185	0xbe0e0379	-0.13868512
186	0x3faae4f4	1.3351121
187	0xbe9e7e93	-0.30955943
188	0x3f0d11ec	0.5510547
189	0x3ee5d10d	0.44886056
190	0x3ff3350a	1.9000561
191	0xbf7b1f37	-0.98094505
192	0xc0142dca	-2.3152947
193	0xbf55cccd	-0.83515626
194	0xbe74f7ec	-0.239227
195	0x3e822ff0	0.25427198
196	0xbee5d388	-0.44887948
197	0x3f68c7a8	0.9092965
198	0x3e1b1021	0.15142871
199	0xbf066e08	-0.52511644
200	0xbf2c5b3f	-0.6732673
201	0xbcde86cb	-0.027163884
202	0xbf1671fe	-0.5876769
203	0xc00bde36	-2.1854377
204	0xbf1808b5	-0.59388286
205	0xbfb8ccab	-1.443746
206	0x3f5bc32a	0.8584467
207	0x3f5ecfb6	0.8703569
208	0xbf88617b	-1.0654749
209	0xbf36e980	-0.7145004
210	0xbf96a6b6	-1.1769626
211	0xbf72eee1	-0.9489575
212	0xbf94da79	-1.1629173
213	0xbf6773cc	-0.90411067
214	0xc0308a2d	-2.7584336
215	0x3dfc5fb4	0.123229414
216	0xbfdbfa04	-1.7185674
217	0x3fa39dc3	1.278252
218	0xbfd9ba74	-1.7010026
219	0x3f156534	0.5835755
220	0xbe5652e8	-0.20930064
221	0xbe85be7b	-0.26121888
222	0x3f2fee96	0.6872343
223	0x3e8c4a87	0.2740061
224	0xbdb839e8	-0.0899542
225	0x3fbfe4ae	1.4991663
226	0x3f7e0358	0.9922385
227	0x3f94e3d9	1.1632034
228	0xbff6ad24	-1.9271588
229	0x3f2bd56a	0.6712252
230	0xbf545eed	-0.82957345
231	0xc01afe7b	-2.4217823
232	0x3ee09979	0.4386709
233	0xbfa3cba3	-1.279652
234	0x3e98410f	0.29737136
235	0xbd258778	-0.040412396
236	0xbe34b2dc	-0.17646354
237	0x3c390cca	0.011294553
238	0x3ff6cc38	1.9281073
239	0x406a8e51	3.6649363
240	0xbfb091c8	-1.3794489
241	0xbfe6bfca	-1.8027279
242	0xbfaf00db	-1.3672136
243	0x3d1e91e3	0.038713347
244	0xbf356779	-0.7086101
245	0xbefe78f1	-0.49701646
246	0x3f625b3b	0.88420457
247	0xbe63b5b4	-0.22237283
248	0xbf8a03d2	-1.0782416
249	0x3f2b7c8a	0.66986907
250	0x3ec2d4c8	0.38052964
251	0x3fd92b8c	1.6966414
252	0xbe8db88a	-0.27679855
253	0xbe416e3a	-0.18889704
254	0x3dd601b0	0.104495406
255	0x3e56b742	0.20968345

transformer_encoder.layers.0.self_attn.in_proj_weight f4 [48, 16]
0	0x3d717671	0.058950845
1	0xbe7d00a6	-0.24707279
2	0xbe30e6dc	-0.17275566
3	0xbe7e46af	-0.24831651
4	0x3d63a1b6	0.05557414
5	0xbe17c766	-0.14822158
6	0x3e299be4	0.16563374
7	0xbdc1e0cd	-0.094667055
8	0xbdb7747f	-0.08957767
9	0x3d872976	0.06599705
10	0xbe772809	-0.24136366
11	0xbe705152	-0.23468521
12	0xbe52f419	-0.20600928
13	0x3e90a7ec	0.28253114
14	0x3ea39433	0.31949005
15	0xbdb53539	-0.08848042
16	0xbdd6b975	-0.10484592
17	0xbea6ac73	-0.32553443
18	0x3e90b3b6	0.2826211
19	0xbe8824c4	-0.2659055
20	0xbd147a05	-0.03624918
21	0x3e7bdfc6	0.24597082
22	0x3e5b0509	0.2138864
23	0xbe2d1a82	-0.16904643
24	0x3ca289f2	0.019841168
25	0xbe6bdf45	-0.2303439
26	0xbd908fa2	-0.07058646
27	0xbc0ac34a	-0.008469412
28	0x3df28874	0.118424326
29	0x3e9511eb	0.29115233
30	0xbe96d8cd	-0.2946228
31	0x3ddf9bf4	0.109184176
32	0x3e72768d	0.23678036
33	0x3e99865d	0.29985324
34	0xbd290ffd	-0.041275013
35	0x3ded3329	0.11582024
36	0x3e5cf092	0.21576145
37	0xbe875c08	-0.26437402
38	0xbd97951f	-0.074014895
39	0xbda6dfcd	-0.08148155
40	0xbdce4a92	-0.10072817
41	0x3e428827	0.1899725
42	0xbe796140	-0.24353504
43	0xbde08003	-0.10961916
44	0x3e85aba1	0.26107505
45	0x3e662ce1	0.22478057
46	0xbe483042	-0.19549659
47	0xbcadafc3	-0.021201974
48	0x3e9f66ad	0.31133023
49	0xbdd6717f	-0.104708664
50	0x3d1cca16	0.03827866
51	0xbd3613ed	-0.044452596
52	0xbdddef78	-0.10836691
53	0xbe1588e4	-0.14603001
54	0x3dc6a07c	0.09698579
55	0xbde64909	-0.11244399
56	0xbe2c0a6d	-0.16800852
57	0xbe84aec2	-0.2591458
58	0xbdfa7936	-0.122301504
59	0xbe57f0ce	-0.21087953
60	0x3e5b3f40	0.21410847
61	0x3e028a3e	0.12748048
62	0xbe7a98b5	-0.24472316
63	0x3d948014	0.072509915
64	0x3e87fb7e	0.2655906
65	0x3e0a089a	0.13479844
66	0xbcb116dd	-0.021617347
67	0xbe66c10c	-0.22534579
68	0xbe650c13	-0.22367887
69	0xbe05812c	-0.13037556
70	0xbe1c6239	-0.15271844
71	0xbdd0f65b	-0.102032386
72	0xbe0801a2	-0.13281873
73	0x3d18b942	0.03728605
74	0xbe62c4da	-0.22145405
75	0xbe222c9e	-0.15837333
76	0x3e4fb964	0.20285565
77	0x3e060b09	0.13090147
78	0xbca8c5b9	-0.020602094
79	0xbae6ad6a	-0.0017599289
80	0x3d8d1682	0.06889059
81	0x3e4321d6	0.19055876
82	0xbd294de1	-0.041334037
83	0xbd1164f8	-0.035496682
84	0x3e8db928	0.27680326
85	0x3e7beb68	0.24601519
86	0xb874d068	-5.8368227e-05
87	0x3d5546f0	0.052069604
88	0xbe62532d	-0.22102042
89	0xbde43c50	-0.11144316
90	0xbdebf6e8	-0.11521703
91	0xbe8058f3	-0.25067863
92	0x3d3dc19c	0.04632722
93	0xbe9953a1	-0.29946616
94	0x3e97edb7	0.2967355
95	0xbddb53c3	-0.10709336
96	0x3d0aa7ee	0.033851556
97	0xbd7ad2cd	-0.06123619
98	0x3e827c5b	0.254855
99	0x3ea1d6e8	0.31609273
100	0x3e1d73f5	0.15376265
101	0x3e60451a	0.2190136
102	0x3d9c068d	0.07618437
103	0x3e2acea4	0.1668039
104	0x3da56269	0.08075411
105	0xbe16eacb	-0.14738004
106	0xbd369937	-0.04457971
107	0xbe48187e	-0.19540593
108	0x3e4541ac	0.19263333
109	0x3e99cec9	0.30040577
110	0xbdc80738	-0.09767002
111	0xbbd8be31	-0.0066144695
112	0xbe35500b	-0.17706315
113	0xbd085f42	-0.03329397
114	0xbe07da89	-0.13266958
115	0xbc754963	-0.01497111
116	0xbe5d26a7	-0.21596776
117	0x3e60b667	0.21944581
118	0x3e801758	0.2501781
119	0x3e8c6df1	0.2742763
120	0x3e26f42d	0.16304083
121	0x3d827506	0.06369977
122	0xbe6f5add	-0.23374505
123	0xbe1465f2	-0.14492014
124	0x3e867ea9	0.2626851
125	0xbe262c3a	-0.16227809
126	0xbe32d7c7	-0.17465125
127	0x3d8ad507	0.06778913
128	0x3e692877	0.22769342
129	0x3d76c717	0.06024846
130	0x3cfb7c0b	0.030698797
131	0x3d3b0896	0.045662485
132	0xbe977b4b	-0.29586253
133	0xbda53c0d	-0.080680944
134	0xbda3f8fc	-0.080064744
135	0xbdc3d4d5	-0.09562079
136	0x3e47ba38	0.1950463
137	0xbe624c01	-0.22099306
138	0xbe09900a	-0.13433853
139	0x3cc3d518	0.023905322
140	0x3de549dd	0.11195729
141	0x3e968862	0.29400927
142	0xbadd9628	-0.0016905712
143	0x3d8ea35e	0.069647536
144	0xbd2b2c5c	-0.04179035
145	0xbe24a6d0	-0.16079259
146	0x3e416d86	0.18889436
147	0xbc053976	-0.008131376
148	0xbe5b1330	-0.21394038
149	0x3e27f426	0.16401729
150	0x3e4ab92f	0.19797204
151	0x3e330ed1	0.17486121
152	0x3e829a85	0.25508514
153	0xbe25eddc	-0.16204017
154	0xbdcea17b	-0.10089394
155	0xbdfcb44b	-0.12339076
156	0x3d233288	0.039843112
157	0x3e05a8c8	0.13052666
158	0x3d3d515a	0.04622016
159	0x3e62b926	0.22140941
160	0x3e7f6725	0.2494169
161	0x3e909afe	0.2824325
162	0xbe55dcc2	-0.20884994
163	0xbdf87132	-0.12130965
164	0xbe949794	-0.29021895
165	0xbe112cb8	-0.14177215
166	0xbe3bbb06	-0.18333063
167	0x3e4cda0e	0.20005056
168	0xbe01b941	-0.12668325
169	0x3ddbb459	0.10727758
170	0xbe58c3a0	-0.21168375
171	0xbe9870fa	-0.29773694
172	0x3e4d79ed	0.20066042
173	0xbe505553	-0.20345049
174	0x3dc8b599	0.09800262
175	0xbe0a682a	-0.13516298
176	0x3c23d8f3	0.010000455
177	0xbd8830e6	-0.06649952
178	0x3e7e0f57	0.24810539
179	0x3dcea73c	0.10090491
180	0x3c1d4592	0.009599106
181	0x3e27ee4f	0.16399501
182	0x3e2a8c2e	0.16655037
183	0xbd9a9f94	-0.07549968
184	0xbe6c92ac	-0.23102826
185	0x3d29b174	0.041428998
186	0x3e6ed1c5	0.23322208
187	0xbd441fdb	-0.047881942
188	0x3e2d8d5d	0.16948457
189	0xbdbc8a57	-0.09206074
190	0x3dec4a62	0.11537625
191	0xbe11d3a2	-0.14240888
192	0x3e7bc4ec	0.24586838
193	0xbd455932	-0.048180766
194	0xbdc311a4	-0.09524849
195	0x3e4b9f69	0.19885029
196	0x3e7b720c	0.24555224
197	0x3e66a894	0.22525245
198	0xbd3b394c	-0.04570894
199	0xbe462df5	-0.19353469
200	0x3e483666	0.19552001
201	0xbe439dbc	-0.1910314
202	0x3e197f49	0.14989962
203	0x3e82c676	0.2554204
204	0x3dada65a	0.08478995
205	0x3c20db4f	0.009817912
206	0xbdae848e	-0.085213766
207	0x3d938a9b	0.07204171
208	0x3e2a3dc2	0.16625121
209	0xbe220c95	-0.15825112
210	0x3e68f7f3	0.22750835
211	0xbdab4727	-0.083631806
212	0xbe5ffa8e	-0.21872923
213	0xbcf8be08	-0.030364051
214	0x3e665b4d	0.22495766
215	0xbd49eeeb	-0.049300116
216	0xbe4dfc47	-0.20115767
217	0x3d80e8be	0.06294392
218	0x3e485345	0.19563015
219	0xbe6b011e	-0.22949645
220	0x3d91fdc0	0.07128477
221	0x3e60a491	0.21937777
222	0x3e27d084	0.16388136
223	0xbe937a68	-0.28804326
224	0xbe30f7bd	-0.17282005
225	0x3e254989	0.16141333
226	0x3e5e6239	0.21717156
227	0x3bc97456	0.0061479015
228	0x3e44146e	0.19148418
229	0x3e80418f	0.25050017
230	0xbdec4730	-0.115370154
231	0x3e41c6a2	0.18923429
232	0x3a7bda99	0.0009607464
233	0xbe8b5e29	-0.27220276
234	0x3e37c73d	0.17947097
235	0x3d5eb3f1	0.054370824
236	0x3e3fcf49	0.18731417
237	0xbe2ef6ec	-0.1708638
238	0x3d81b2fe	0.06332968
239	0x3d9d216b	0.076723896
240	0x3c870c3a	0.016485322
241	0x3d62079d	0.05518304
242	0xbe4ccb4e	-0.1999943
243	0xbe7839ba	-0.24240771
244	0xbe983030	-0.29724264
245	0x3dc4700b	0.09591683
246	0x3da954d1	0.082681306
247	0x3e61bd28	0.22044814
248	0xbe880d72	-0.26572758
249	0xbe5effe8	-0.21777308
250	0xbde0c9d3	-0.10975995
251	0xbc4e6917	-0.012598298
252	0x3e1bfc9f	0.15233086
253	0x3e8aa953	0.2708231
254	0xbe5ae29a	-0.21375504
255	0xbe3fd06b	-0.18731849

transformer_encoder.layers.0.self_attn.in_proj_bias f4 [48]
0	0xbbd15032	-0.006387734
1	0x3c239d06	0.009986168
2	0xbc77e96a	-0.015131334
3	0xbcec349a	-0.028833676
4	0x3d06daee	0.03292363
5	0xbcbccdaa	-0.023047287
6	0x3cff82b6	0.031190258
7	0x3cf38aa9	0.029729204
8	0xb6a5d540	-4.9422088e-06
9	0x3ac5cfe9	0.0015091869
10	0xbc095ff7	-0.008384696
11	0x3c89d7f8	0.016826615
12	0xbb287e79	-0.002571015
13	0xbb2b7430	-0.0026161782
14	0xbc044fc8	-0.008075662
15	0xbbc9d8fe	-0.0061599007
16	0xbbc01e3c	-0.005862979
17	0x3a6ca0e0	0.0009026658
18	0xbcd783d0	-0.02630797
19	0xbbe283c5	-0.006912681
20	0xbc2e652b	-0.0106442375
21	0xbc5c7abf	-0.013456999
22	0x3ce728c3	0.028217679
23	0x3c97048c	0.018434785
24	0x3a9a79bc	0.0011785547
25	0xbb5508b3	-0.0032506406
26	0x3b0f5c7d	0.0021875196
27	0x3a8cd903	0.0010745827
28	0x3a880529	0.0010377514
29	0xba33d15f	-0.0006859507
30	0xbaf69ec0	-0.0018815622
31	0xbb6cf6e6	-0.0036157905
32	0x3c353988	0.01106108
33	0x3d07903b	0.033096533
34	0x3dc0be79	0.0941133
35	0x3caa8ecf	0.02082005
36	0x3d1c943d	0.03822731
37	0xbda26531	-0.07929457
38	0x3cc68597	0.024233622
39	0xbdb50406	-0.08838658
40	0xbcdbb3dc	-0.026819162
41	0xbca28830	-0.01984033
42	0xbdd8851b	-0.10572263
43	0x3cecbfd6	0.028900068
44	0x3da815b0	0.082072616
45	0xbc2d9ad7	-0.010595999
46	0xbd8aa905	-0.06770519
47	0xbcb01fd4	-0.021499552

transformer_encoder.layers.0.self_attn.out_proj.weight f4 [16, 16]
0	0xbe496386	-0.19666871
1	0xbe160117	-0.14648853
2	0xbe584891	-0.21121432
3	0x3e8362c3	0.25661287
4	0x3de95575	0.11393253
5	0xbd7f741a	-0.062366582
6	0x3e4798ee	0.19491932
7	0xbd9ba7d3	-0.07600369
8	0xbdf20acd	-0.11818466
9	0x3d722e07	0.059125926
10	0x3e747a55	0.23874791
11	0xbd5b26ce	-0.053503804
12	0xbe76bd81	-0.24095728
13	0xbdcbf162	-0.099581495
14	0x3e72d6b8	0.23714721
15	0x3d2fd5fd	0.042928685
16	0xbdf3d0b9	-0.11905045
17	0xbe75a33a	-0.23988047
18	0x3cc7ec35	0.024404624
19	0xbe322f70	-0.17400908
20	0xbe2c106d	-0.16803141
21	0xbe603794	-0.21896201
22	0xbb9d43e6	-0.004799354
23	0xbe087472	-0.1332567
24	0x3c028c00	0.007967949
25	0x3e8b2412	0.27175957
26	0x3e7657d3	0.2405694
27	0xbe2e0d57	-0.16997276
28	0x3e26a9ef	0.16275762
29	0x3e2c71e0	0.16840315
30	0x3da33d86	0.07970719
31	0x3c521eea	0.012824753
32	0xbdaa14fa	-0.08304782
33	0xbe334b98	-0.17509305
34	0xbe5bfb3d	-0.21482559
35	0x3dbd9dcc	0.09258613
36	0xbd291b15	-0.041285593
37	0x3e36bd9b	0.17845766
38	0xbe6463cb	-0.22303693
39	0xbe02e281	-0.12781717
40	0x3e7f3c67	0.24925385
41	0x3e6ff7e1	0.23434402
42	0x3e6474c0	0.22310162
43	0xbde542b4	-0.11194363
44	0xbe3bf72b	-0.18356006
45	0x3e314c58	0.17314279
46	0xbbb2693f	-0.005444675
47	0x3bf19b9f	0.007373288
48	0x3e089fb9	0.1334218
49	0x3e5baba3	0.21452193
50	0x3e34f5c0	0.17671871
51	0x3e3dc20d	0.18531056
52	0xbe21de6a	-0.158075
53	0x3d7c3fdc	0.06158434
54	0xbd3d3043	-0.046188604
55	0x3e19cde0	0.15019941
56	0xbe4656c0	-0.1936903
57	0xbdedf9dd	-0.11619923
58	0xbbc59592	-0.006029793
59	0x3bf2fa37	0.007415082
60	0x3e4f9e01	0.20275117
61	0xbe4ba913	-0.19888715
62	0x3e611c98	0.21983564
63	0xbdbc7513	-0.09202018
64	0x3e419ea2	0.1890817
65	0x3e03358c	0.12813395
66	0xbdd0c16a	-0.10193141
67	0xbdce5f87	-0.10076814
68	0xbbc60e04	-0.0060441513
69	0x3da656c7	0.0812202
70	0x3afc34ea	0.0019241844
71	0x3e68fb8e	0.2275221
72	0xbe5e358f	-0.21700118
73	0x3e967cc6	0.2939207
74	0x3dfc6980	0.1232481
75	0xbd3e65d3	-0.046483826
76	0xbd8dd1be	-0.06924771
77	0xbe574ff2	-0.2102659
78	0xbe48c345	-0.1960574
79	0x3e48dc0e	0.19615194
80	0xbe711e8e	-0.23546812
81	0x3d721203	0.05909921
82	0x3cc185ed	0.023623431
83	0x3de60e5a	0.11233206
84	0x3e85a382	0.2610131
85	0x3e1cf783	0.15328793
86	0xbdbd9a18	-0.09257907
87	0xbe390953	-0.18069963
88	0x3dd245ff	0.10267257
89	0x3e1f0692	0.1552985
90	0x3e57e7c3	0.21084504
91	0xbe81c4d2	-0.25345474
92	0x3e3a5654	0.18196994
93	0xbda08a38	-0.07838863
94	0xbe185b77	-0.14878641
95	0x3e2a9eab	0.1666209
96	0xbb971c02	-0.004611493
97	0x3d078276	0.0330834
98	0x3e23cb3a	0.15995494
99	0x3e3f4622	0.18679097
100	0xbe6d646b	-0.23182838
101	0xbe435f46	-0.19079313
102	0x3e0a8045	0.13525493
103	0x3ded2128	0.1157859
104	0xbe217097	-0.15765606
105	0x3dc7f935	0.09764329
106	0xbe27cbbf	-0.16386317
107	0x3e64e610	0.22353387
108	0x3d8d01de	0.06885122
109	0x3c348094	0.011016984
110	0xbe6d2a8a	-0.23160759
111	0xbe496caa	-0.19670358
112	0x3d83b751	0.06431449
113	0x3e469778	0.19393718
114	0xbe6e3b34	-0.23264772
115	0xbe1a2415	-0.15052827
116	0xbe7cc88f	-0.24685882
117	0xbda0a3bc	-0.0784373
118	0x3e458ba6	0.19291553
119	0xbde7ac50	-0.11312163
120	0xbd99c43c	-0.07508132
121	0x3e4d91e1	0.2007518
122	0x3defd4f1	0.11710537
123	0x3e4ae74e	0.19814798
124	0x3e2c07c3	0.16799836
125	0xbe470358	-0.1943487
126	0x3b99ec5b	0.004697365
127	0xbe5b780f	-0.21432517
128	0x3d65c9f7	0.05610081
129	0x3e32ff48	0.17480195
130	0xbb023796	-0.0019869558
131	0x3dd7e673	0.105420016
132	0xbd0a439a	-0.033755876
133	0xbd4da41b	-0.05020533
134	0xbd2b7fc9	-0.041869912
135	0x3dbc7498	0.09201926
136	0xbe611b67	-0.2198311
137	0xbe0011e9	-0.12506832
138	0x3e68ef55	0.22747548
139	0xbda8123e	-0.082066044
140	0xbe8318ba	-0.25604802
141	0xbe087b77	-0.13328348
142	0x3e8277fd	0.2548217
143	0xbd0aafc9	-0.033859048
144	0x3dd0f612	0.10203184
145	0x3e60dbc7	0.21958838
146	0xbe5f0970	-0.21780944
147	0x3e05decf	0.13073276
148	0x3e31c003	0.17358403
149	0x3e3dcd83	0.18535428
150	0xbd3ddca2	-0.04635299
151	0xbe6bc157	-0.23022972
152	0x3e369876	0.17831597
153	0x3caf7a0c	0.021420501
154	0xbccd1305	-0.025033483
155	0xbe4b37ed	-0.19845553
156	0x3e216e52	0.1576474
157	0x3e1661f0	0.14685798
158	0xbd2626b4	-0.040564254
159	0xbda9a1d5	-0.0828282
160	0xbd8e39db	-0.06944629
161	0xbe165ade	-0.146831
162	0xbd979f4d	-0.07403431
163	0x3da69c27	0.081352524
164	0x3e791ce6	0.2432743
165	0xbe187361	-0.14887764
166	0x3c817824	0.015804358
167	0xbe253078	-0.1613177
168	0x3c3c6abc	0.011500057
169	0x3e208cfd	0.15678783
170	0xbe39e13b	-0.18152325
171	0xbe87e260	-0.26539898
172	0x3d4b7e66	0.04968109
173	0x3dded186	0.10879807
174	0xbd093c62	-0.03350485
175	0x3e365103	0.17804341
176	0xbe735fee	-0.23767063
177	0x3de9b73f	0.114119045
178	0xbdb78cbe	-0.08962391
179	0x3c45ace2	0.012065144
180	0xbd3a4eff	-0.045485493
181	0xbdf0368e	-0.117291555
182	0x3d48f879	0.049065087
183	0x3e0c24f0	0.13685966
184	0xbe527ffa	-0.20556632
185	0xbe3b472e	-0.18288872
186	0x3e5bbf9e	0.21459815
187	0xbe20b0ac	-0.15692395
188	0xbc9168d9	-0.01775019
189	0xbe26bd19	-0.16283073
190	0xbd98985d	-0.07450936
191	0xbe5b6bc2	-0.21427825
192	0x3e002d98	0.12517393
193	0xbe520c35	-0.20512469
194	0x3d7ecdca	0.062207974
195	0xbd90c81e	-0.07069419
196	0x3dd1e011	0.102478154
197	0xbd8206f9	-0.06348986
198	0xbe8c00a7	-0.27344248
199	0xbdd5ff01	-0.10449029
200	0xbdd5ce39	-0.104397245
201	0xbe73959b	-0.23787539
202	0x3a16a7ed	0.0005747069
203	0x3dbe25b4	0.09284535
204	0x3d903018	0.07040423
205	0x3e675a52	0.22593048
206	0xbdf24c9c	-0.11831018
207	0x3d830099	0.06396598
208	0x3d26adce	0.040693097
209	0x3e339807	0.17538463
210	0x3d14063e	0.036138766
211	0x3e212a61	0.15738823
212	0xbd0d489d	-0.034493078
213	0x3da15396	0.07877271
214	0x3c1eba4c	0.009687971
215	0xbc4b9207	-0.012424952
216	0xbe36c3aa	-0.17848077
217	0xbd8fa666	-0.0701416
218	0x3d89dd62	0.067316785
219	0x3e0e2d5c	0.1388449
220	0xbe1bb7cc	-0.15206832
221	0xbe0dd79c	-0.1385178
222	0xbe0dee32	-0.13860396
223	0xbc9abe1d	-0.018889481
224	0xbb461342	-0.003022388
225	0xbdb1eaa9	-0.08687336
226	0x3db8947d	0.09012697
227	0xbe70f826	-0.23532161
228	0xbe5b34f4	-0.21406919
229	0x3c9df14c	0.019280098
230	0xbe223e05	-0.15843971
231	0xbde4a82b	-0.11164888
232	0xbd4b7424	-0.049671307
233	0xbdd4b72a	-0.10386498
234	0xbe13a259	-0.144174
235	0xbd4f10af	-0.05055302
236	0x3d987b0b	0.074453436
237	0x3b3ae567	0.0028518082
238	0xbe20939b	-0.15681307
239	0xbd9be6cf	-0.076123826
240	0x3d8e8dcb	0.069606386
241	0xbcc91b28	-0.024549082
242	0x3d18833b	0.037234526
243	0x3e2bf329	0.16791977
244	0xbe4bd49a	-0.1990532
245	0x3e397367	0.18110429
246	0x3e7d3dfe	0.2473068
247	0x3e2aba17	0.1667255
248	0x3e1ee87f	0.15518378
249	0xbd71df28	-0.05905071
250	0x3dbfff91	0.09374917
251	0xbd471624	-0.0486051
252	0x3dcbb7d4	0.09947172
253	0x3e669262	0.22516778
254	0xbe0f47d3	-0.13992243
255	0x3ca92814	0.020648994

transformer_encoder.layers.0.self_attn.out_proj.bias f4 [16]
0	0xbd3331a1	-0.0437485
1	0x3b2f4d6d	0.002674903
2	0xbdb56189	-0.08856494
3	0x3d0963a8	0.033542305
4	0xbd81a7de	-0.06330846
5	0x3d5c1dc7	0.053739335
6	0x3d6196a2	0.055075295
7	0x3b08b476	0.0020859516
8	0xbd0c9814	-0.03432472
9	0x3cbd7ba6	0.02313025
10	0x3d7069f5	0.0586948
11	0xbd31e20e	-0.043428473
12	0x3cb9df21	0.022689404
13	0x3b8f1732	0.004366779
14	0x3d86812b	0.065676056
15	0xbc2826d8	-0.010263167

transformer_encoder.layers.0.linear1.weight f4 [2048, 16]
0	0x3db79c75	0.08965389
1	0xbde069a2	-0.10957648
2	0xbddfc5ae	-0.10926376
3	0x3e3aadda	0.18230382
4	0x3db80a19	0.08986301
5	0xbcf37342	-0.029718045
6	0x3e49897a	0.1968135
7	0xbc0ca2b9	-0.008583718
8	0x3c29f4d2	0.010373311
9	0xbe4f7074	-0.20257741
10	0x3e2a8614	0.16652709
11	0x3da2c939	0.079485364
12	0xbe119d13	-0.14220075
13	0x3d18f937	0.037347045
14	0x3dc8cef8	0.09805101
15	0xbe542095	-0.20715554
16	0x3d7e59b2	0.06209726
17	0xbd17d331	-0.037066642
18	0x3e83b4b0	0.2572379
19	0xbe14dad8	-0.14536607
20	0x3d1172c7	0.03550985
21	0xbe754e96	-0.2395576
22	0x3e005184	0.12531096
23	0x3e2f7051	0.17132689
24	0xbe3591c2	-0.17731383
25	0xbdc0d8cb	-0.0941635
26	0xbe65a30b	-0.22425477
27	0x3e4b4534	0.19850618
28	0xbdb2334e	-0.08701192
29	0x3e1eb19c	0.1549744
30	0x3d3f210a	0.046662368
31	0xbd0f7eac	-0.035032913
32	0x3e1732a1	0.14765407
33	0xbe404fd8	-0.18780458
34	0xbe304ddc	-0.17217201
35	0xbda0b67e	-0.078473076
36	0x3d2b042a	0.041752018
37	0xbbbe0b81	-0.005799711
38	0xbdf1352b	-0.11777719
39	0x3dab40a6	0.0836194
40	0xbe81362e	-0.25236648
41	0x3e0762ce	0.13221285
42	0x3dd2b685	0.10288719
43	0xbe38961d	-0.18026014
44	0xbc2d20b2	-0.010566877
45	0xbe880e8d	-0.265736
46	0xbe61ccff	-0.22050856
47	0x3e69f774	0.22848302
48	0x3d55ac30	0.052166164
49	0xbda30eb2	-0.07961787
50	0x3d68f48c	0.056873843
51	0xbe0817ba	-0.13290301
52	0x3be2b9b9	0.0069191125
53	0x3e3288c8	0.1743499
54	0xbdaa95d4	-0.08329359
55	0x3e57500c	0.21026629
56	0xbe134d34	-0.1438492
57	0x3d6b780d	0.057487536
58	0xbdaf7b84	-0.085684806
59	0x3c3a5aa1	0.011374147
60	0xbd612789	-0.054969344
61	0xbd060242	-0.032716997
62	0x3d9ece09	0.07754142
63	0x3dac229e	0.0840504
64	0x3d1ba4e7	0.03799906
65	0xbe4d1e64	-0.20031124
66	0x3e0dda77	0.13852869
67	0xbdbf5c71	-0.09343804
68	0x3c7c4006	0.015396124
69	0xbdc388ea	-0.09547599
70	0xbcf6a3fb	-0.030107489
71	0x3deea03a	0.116516545
72	0xbe39b936	-0.18137059
73	0x3e788f49	0.24273409
74	0xbe8b09cf	-0.2715592
75	0xbde7967b	-0.11307999
76	0xbe70f008	-0.23529065
77	0xbe39a26f	-0.1812837
78	0x3de63fdc	0.11242649
79	0xbd32d5dd	-0.043660987
80	0x3c6cb3e5	0.014447187
81	0xbe37a21e	-0.17932937
82	0x3dd83e0e	0.10558711
83	0xbe0ba088	-0.13635457
84	0x3e80dd86	0.2516901
85	0xbcb31cd6	-0.021864336
86	0xbdc27f83	-0.09496977
87	0x3e44cbc3	0.19218354
88	0x3e644ed6	0.22295699
89	0x3e689448	0.22712815
90	0xbdf663f8	-0.12030786
91	0xbe4fba9b	-0.20286028
92	0xbd9eef8a	-0.07760532
93	0xbe6e256e	-0.23256466
94	0xbdf66c92	-0.12032427
95	0xbe171753	-0.14754991
96	0x3e74fa7d	0.23923679
97	0xbe41e3b8	-0.18934524
98	0x3e3a2d46	0.18181333
99	0x3da18128	0.07885963
100	0x3bc8f970	0.006133251
101	0xbd90e605	-0.07075123
102	0x3e4897c0	0.19589138
103	0x3e468ec7	0.19390403
104	0xbe3dfb9c	-0.18553013
105	0xbdcbd9fb	-0.09953686
106	0x3e41de24	0.18932396
107	0x3e2c2a69	0.16813053
108	0xbe114e39	-0.14189996
109	0x3e53021d	0.20606275
110	0xbdb62e55	-0.08895556
111	0xbe4ed871	-0.20199753
112	0x3dbfbf73	0.09362688
113	0x3e355240	0.17707157
114	0x3db2ab3d	0.08724067
115	0xbe7bc4a2	-0.24586728
116	0x3e4583bb	0.19288532
117	0xbe44a447	-0.19203292
118	0xbd554b74	-0.05207391
119	0xbe148f19	-0.14507712
120	0x3dd6f5a6	0.104960725
121	0x3d6d5e7b	0.05795143
122	0x3e6606e6	0.22463569
123	0xbe1d398f	-0.15353988
124	0xbdf966d0	-0.12177813
125	0xbd4f54bd	-0.050617922
126	0xbdcfb918	-0.10142726
127	0xbd9944cb	-0.07483824
128	0xbd8ed68f	-0.069745176
129	0x3b21b588	0.0024674851
130	0x3d0a980e	0.033836417
131	0x3dd7ad61	0.10531116
132	0x3e779eff	0.24181746
133	0x3c9e3993	0.019314563
134	0x3db42af2	0.08797254
135	0xbe588ddf	-0.2114787
136	0x3dfc95a1	0.12333227
137	0x3ddbc5b0	0.10731065
138	0x3cbb1358	0.022836372
139	0xbd08977e	-0.0333476
140	0xbdca6ce5	-0.09884051
141	0xbd18b810	-0.03728491
142	0x3df858e3	0.12126329
143	0xbd99b4dd	-0.075052
144	0x3c25b561	0.010114045
145	0x3e809c66	0.25119323
146	0x3e776e33	0.24163131
147	0x3e024100	0.12720108
148	0x3e88852d	0.26664105
149	0xbe09eea1	-0.13469936
150	0xbd3f7f8f	-0.04675251
151	0xba42d2c2	-0.0007431918
152	0x3e832dba	0.25620824
153	0xbc2402ec	-0.010010462
154	0xbda9a48e	-0.082833394
155	0xbd75c9c4	-0.06000687
156	0x3e241603	0.16024022
157	0x3e81b638	0.25334334
158	0xbc72624b	-0.014793943
159	0xbd312fa2	-0.043258317
160	0xbdcc8d65	-0.09987906
161	0xbea603cc	-0.32424772
162	0xbe9551e5	-0.29164043
163	0xbd0ab95f	-0.03386819
164	0xbe89d164	-0.26917565
165	0x3e189003	0.14898686
166	0x3e519f25	0.20470865
167	0x3e500d3e	0.20317551
168	0x3db0da8e	0.08635436
169	0x3d151743	0.036399137
170	0x3e1b5a05	0.15171058
171	0x3e7bc678	0.24587429
172	0xbdad2430	-0.08454168
173	0x3dd2470b	0.102674566
174	0x3d96f6e9	0.07371313
175	0x3e833750	0.25628138
176	0xbe47e666	-0.19521484
177	0xbe548da6	-0.2075716
178	0xbe6a6cce	-0.22893068
179	0xbdd3ba0f	-0.10338222
180	0x3dc560cf	0.096376054
181	0xbe7431d6	-0.23847136
182	0x3d9b1d3d	0.07573936
183	0x3cc263cb	0.023729226
184	0xbe4b2abe	-0.19840524
185	0x3de4bc8d	0.11168776
186	0x3e50dd1a	0.20396844
187	0xbdca19e0	-0.098682165
188	0xbda3c7d0	-0.079970956
189	0x3e6fc5f0	0.23415351
190	0x3e570680	0.20998573
191	0xbdcf1a00	-0.10112381
192	0xbe094959	-0.13406886
193	0xbe529694	-0.20565253
194	0xbe2ccb6f	-0.16874479
195	0x3d842ac8	0.064534724
196	0x3e2f6a07	0.1713029
197	0x3d4fe56f	0.050755914
198	0xbe697675	-0.22799094
199	0xbe68e528	-0.22743666
200	0xbe480e4d	-0.19536705
201	0xbd006359	-0.031344745
202	0x3e1966b6	0.14980587
203	0xbd66fc60	-0.056393027
204	0xbaf4329e	-0.0018630808
205	0xbe36bdae	-0.17845795
206	0x3e392bbe	0.18083093
207	0xbd2972e7	-0.041369345
208	0x3e1e284b	0.15445058
209	0xbccd8f16	-0.025092643
210	0xbe40bc44	-0.18821818
211	0x3dbbe170	0.09173858
212	0xbe205438	-0.15657127
213	0xbcfbb616	-0.030726474
214	0xbe170bd5	-0.14750607
215	0xbde3b12c	-0.11117777
216	0xbe49c06a	-0.19702306
217	0x3e78909a	0.24273911
218	0xbd2fac66	-0.04288902
219	0x3d87e09a	0.06634636
220	0xbdd852da	-0.10562678
221	0xbe7d98b5	-0.24765284
222	0xbd41daa8	-0.047327667
223	0xbe39409f	-0.18091057
224	0xbe18e2ab	-0.14930217
225	0xbd94c47e	-0.072640404
226	0x3e1c8471	0.15284897
227	0x3e5f29e8	0.2179333
228	0x3e357316	0.17719683
229	0xbd85c009	-0.065307684
230	0x3e5b8ace	0.21439669
231	0xbb424a9f	-0.0029646528
232	0xbe51a398	-0.20472562
233	0x3dca657f	0.0988264
234	0x3e06a2b3	0.13148002
235	0xbe68e58e	-0.22743818
236	0xbc30ad06	-0.0107834395
237	0x3e6d9ac5	0.23203571
238	0xbe4d981c	-0.20077556
239	0x3e103130	0.14081264
240	0x3da8d274	0.08243266
241	0x3e26e343	0.16297631
242	0x3b7cd785	0.0038580608
243	0xbe59e3a8	-0.2127825
244	0xbdb7edd1	-0.08980907
245	0x3cd388d6	0.025822084
246	0xbe22459e	-0.1584687
247	0x3dec0b0f	0.11525547
248	0x3dafb387	0.08579164
249	0x3cd31926	0.025768828
250	0x3e7d14b6	0.24714932
251	0xbe13091e	-0.14358947
252	0x3e43cda6	0.19121417
253	0x3e4af472	0.19819811
254	0x3a8cee6f	0.0010752211
255	0xbe18de5f	-0.14928578

transformer_encoder.layers.0.linear1.bias f4 [2048]
0	0xbe3bc847	-0.18338118
1	0xbd9eda32	-0.07756461
2	0xbe4e3e8f	-0.20141052
3	0xbd858802	-0.06520082
4	0xbd5ce434	-0.05392857
5	0xbd92d01e	-0.071686015
6	0x3cc376e7	0.023860408
7	0x3e360f85	0.17779358
8	0x3e3f7719	0.18697776
9	0x3e6e85a1	0.23293163
10	0x3ea53aa6	0.32271308
11	0x3e735061	0.23761131
12	0xbe4baf56	-0.19891104
13	0x3de86635	0.113476194
14	0x3dfafe7d	0.12255571
15	0x3e5c253f	0.21498583
16	0x3d990711	0.07472051
17	0xbe220097	-0.15820538
18	0x3d11be07	0.035581615
19	0x3e4367cc	0.19082564
20	0x3e2920cf	0.16516422
21	0x3e827966	0.25483245
22	0xbd26abfe	-0.04069137
23	0xbbd7a70b	-0.0065811924
24	0x3e7ec8b0	0.24881244
25	0x3e2ae74b	0.16689794
26	0x3e70b471	0.23506333
27	0xbdca60be	-0.09881733
28	0x3e33de63	0.17565303
29	0x3d9ebd3c	0.07750937
30	0x3e0d5dd0	0.13805318
31	0x3e32ae84	0.17449385
32	0xbdbf1d46	-0.09331755
33	0xbe6ab05d	-0.2291884
34	0xbe3e73c4	-0.18598849
35	0x3e667ec9	0.22509302
36	0xbe78f970	-0.24313903
37	0xbe740b3f	-0.23832415
38	0xbc985ec2	-0.018599872
39	0x3dadf36d	0.084936954
40	0x3e742a84	0.23844343
41	0x3d74ef5f	0.059798595
42	0xbd2483c1	-0.040164713
43	0x3e2aec13	0.16691618
44	0x3e1fd279	0.15607633
45	0x3e6d10fd	0.23151012
46	0xbd8d3cc7	-0.06896358
47	0xbdcd1986	-0.10014634
48	0xbe2c634b	-0.16834752
49	0xbcb051ee	-0.021523442
50	0xbda436cd	-0.08018265
51	0xbe2ca62f	-0.16860269
52	0xbd8919cf	-0.06694376
53	0xbe4580e6	-0.19287452
54	0x3e67053e	0.22560593
55	0x3de38e1a	0.11111088
56	0xbe727190	-0.23676133
57	0x3c0eb0c6	0.008709138
58	0x3d56075e	0.05225312
59	0xbe0a01ef	-0.134773
60	0xbcf59fbf	-0.0299834
61	0x3dff70aa	0.12472661
62	0xbe5bb5fd	-0.21456142
63	0xbdb03f4e	-0.086058244
64	0x3e51e969	0.20499195
65	0xbe26a088	-0.16272175
66	0xbe45daae	-0.19321701
67	0x3d47581d	0.048668016
68	0x3e3db612	0.18526486
69	0xbdfd2d27	-0.12362128
70	0xbe24ae9a	-0.1608223
71	0x3dffccf2	0.12490262
72	0xbcc0e310	-0.023545772
73	0x3e609632	0.21932295
74	0x3d605764	0.054770842
75	0xbdf0ee65	-0.1176422
76	0xbd834fef	-0.064117305
77	0x3dfd5521	0.12369753
78	0x3c5fef27	0.013667858
79	0x3e20be08	0.15697491
80	0x3e6d2af1	0.23160912
81	0xbd1bd11a	-0.03804121
82	0xbe10e7df	-0.14150952
83	0x3dd99d72	0.106257334
84	0x3e42f40f	0.19038413
85	0x3e23e56d	0.16005488
86	0x3e305daf	0.17223237
87	0x3e0e6836	0.13906941
88	0xbaa41158	-0.0012517376
89	0xbc6145d9	-0.013749563
90	0xbba74fcf	-0.0051059495
91	0x3da94413	0.08264937
92	0xbe345971	-0.17612244
93	0xbe139780	-0.14413261
94	0x3e5ed0cc	0.21759337
95	0x3dc7ac53	0.09749665
96	0x3e39c7f2	0.1814268
97	0x3dd56cd9	0.10421152
98	0xbd92d61a	-0.07169743
99	0x3e12e616	0.14345583
100	0xbe65f1cc	-0.2245552
101	0xbcb9902d	-0.022651756
102	0xbe728332	-0.2368286
103	0x3e5ebc48	0.21751511
104	0x3a7ac823	0.0009566566
105	0x3e2361af	0.15955232
106	0x3e4a52d2	0.19758156
107	0x3e2c6435	0.16835101
108	0xbc90ab48	-0.017659798
109	0xbdb21d9f	-0.08697056
110	0x3da62185	0.08111862
111	0x3e136ad8	0.14396226
112	0xbccc1c77	-0.024915917
113	0xbddc7bff	-0.10765838
114	0x3e19bfca	0.15014568
115	0x3de46142	0.11151363
116	0xbd05945e	-0.032612197
117	0xbcae813a	-0.021301854
118	0xbe3d17f6	-0.18466172
119	0x3e14397b	0.14475052
120	0x3e35b968	0.17746508
121	0x3e262679	0.16225614
122	0x3d9fde1e	0.07806037
123	0xbe2050a5	-0.15655763
124	0xbc6758e0	-0.014120311
125	0xbe5d1e06	-0.21593484
126	0x3e0e1ca7	0.13878118
127	0xbda2e19e	-0.07953189
128	0x3e5fdb99	0.21861114
129	0x3d4208d3	0.047371697
130	0x3d539ec4	0.051665083
131	0xbd912b39	-0.07088322
132	0x3e0fb6d2	0.14034584
133	0xbe68e5d2	-0.2274392
134	0xbd43c0c2	-0.04779125
135	0xbdfe121e	-0.12405799
136	0x3d82d3f3	0.06388082
137	0xbe1899b3	-0.14902382
138	0x3e1968e8	0.14981425
139	0x3bb7fead	0.0056150765
140	0x3e6a42ae	0.22876999
141	0x3d5264ef	0.05136579
142	0xbc177081	-0.009243132
143	0xbd9d84d0	-0.076913476
144	0xbcc3cf18	-0.023902461
145	0xbe5ccf80	-0.2156353
146	0x3e3f544a	0.18684497
147	0xbe2c5e5e	-0.16832873
148	0xbdf59d91	-0.11992944
149	0x3d855cc1	0.06511832
150	0xbcd5c4e7	-0.026094867
151	0x3cf1a086	0.029495489
152	0xbdfdd245	-0.12393621
153	0x3e447b36	0.19187626
154	0xbc3a3df7	-0.011367313
155	0xbdc4ff8a	-0.09619053
156	0x3d988602	0.07447435
157	0xbdc6543c	-0.09684035
158	0x3e549e50	0.20763516
159	0x3e5f8e79	0.21831693
160	0xbe80c91e	-0.2515344
161	0xbe4fefba	-0.20306292
162	0xbcc5abbe	-0.024129745
163	0x3e5bd3d3	0.21467523
164	0xbe3405ab	-0.17580287
165	0xbd91dd14	-0.071222454
166	0xbd3a5efd	-0.045500744
167	0xbd70f23e	-0.05882477
168	0xbe6c84b7	-0.23097502
169	0xbd086f65	-0.03330936
170	0xbdba98db	-0.09111186
171	0x3e0bc95f	0.13651036
172	0xbe2aa13f	-0.16663073
173	0xbe42b5dd	-0.19014688
174	0x3e269af6	0.1627005
175	0xbe46834d	-0.19386025
176	0x3d23c47c	0.039982304
177	0xbe224a14	-0.15848571
178	0x3e119d47	0.14220153
179	0x3e2d0cdf	0.16899441
180	0xbd8326e3	-0.064039014
181	0xbd8c2dd2	-0.06844677
182	0xbce2b68e	-0.02767494
183	0xbe3f0180	-0.18652916
184	0xbe1e27bd	-0.15444846
185	0x3e76968e	0.2408087
186	0xbe3de2bd	-0.18543525
187	0x3e061f43	0.13097863
188	0x3e6b1977	0.22958933
189	0x3d6f52b7	0.058428492
190	0xbcfaaa9f	-0.030598937
191	0x3e71701a	0.2357792
192	0xbe085f86	-0.1331769
193	0xbdfeb9c7	-0.12437778
194	0x3e5d5001	0.2161255
195	0x3e3ab0af	0.18231462
196	0xbd806b15	-0.06270424
197	0x3e1f66b5	0.15566523
198	0xbe35b401	-0.17744447
199	0x3df069b7	0.117389135
200	0xbe7cd921	-0.24692203
201	0xbd600e6a	-0.054701246
202	0xbe14f6eb	-0.14547317
203	0x3cd58b3c	0.026067369
204	0xbe3fa6c4	-0.1871596
205	0x3e444b42	0.19169334
206	0x3cfac6d0	0.03061238
207	0xbdc4cbd3	-0.09609189
208	0xbd342bc8	-0.043987066
209	0x3e0d3bca	0.13792339
210	0x3e0166cc	0.1263687
211	0x3cedfac1	0.029050233
212	0xbe8216ab	-0.2540792
213	0xbe21bc14	-0.15794402
214	0xbe2b9ee7	-0.16759835
215	0xbe72556a	-0.23665395
216	0x3e125b3d	0.14292617
217	0x3dcf47c3	0.10121109
218	0xbe84f24f	-0.25966117
219	0xbe3464c5	-0.17616566
220	0xbe3328c2	-0.17496017
221	0xbe00f447	-0.12593184
222	0x3de5766c	0.11204228
223	0xbe060610	-0.1308825
224	0xbe0e6422	-0.13905385
225	0x3d6b6ae2	0.05747498
226	0x3d8aaf31	0.06771696
227	0x3cbe95d8	0.02326481
228	0x3e16c42c	0.14723271
229	0x3d3c297e	0.045938008
230	0x3d9df08b	0.077118956
231	0xbd3e5fe0	-0.046478152
232	0x3d55439c	0.05206643
233	0xbe45c129	-0.19311966
234	0x3db2f7f8	0.087387025
235	0x3e73ef82	0.23821834
236	0xbddb8e49	-0.10720498
237	0x3dad8c3c	0.08474013
238	0x3e2f44b9	0.1711606
239	0xbe205a0f	-0.15659355
240	0x3e5f98ed	0.2183568
241	0x3e018d75	0.12651618
242	0xbd4176f6	-0.04723259
243	0x3d417d7f	0.047238823
244	0xbc2bfcda	-0.010497296
245	0x3e2c207e	0.1680927
246	0x3e3dc9e6	0.1853405
247	0xbdebd390	-0.11514962
248	0xbda4714f	-0.080294244
249	0x3e198ccb	0.14995115
250	0x3e226d33	0.15861969
251	0xbe436e8b	-0.19085138
252	0xbd90b390	-0.07065499
253	0xbdab77ac	-0.08372435
254	0x3e7c355a	0.24629727
255	0xbc1589d2	-0.009127097

transformer_encoder.layers.0.linear2.weight f4 [16, 2048]
0	0x3c491843	0.012273851
1	0x3c37ba7a	0.011213893
2	0x3c840d40	0.0161196
3	0x3cedeb83	0.029042965
4	0x3cd62fe5	0.026145885
5	0x3ca7b022	0.020469729
6	0x3d01e58e	0.03171306
7	0x3c3adf17	0.011405728
8	0x3ca31b5c	0.019910507
9	0x3b35276e	0.002764191
10	0x3ca28abb	0.019841542
11	0x3c382c62	0.01124105
12	0xbc83552e	-0.016031828
13	0x3c4d657e	0.012536405
14	0xba1a744c	-0.00058919634
15	0x3b851eec	0.004062524
16	0x3c3bf939	0.0114729935
17	0x3c95a7cb	0.018268486
18	0x3cea54ba	0.028604854
19	0x3b4f79ce	0.0031658295
20	0xbab30db3	-0.0013660699
21	0xbbd3ce6e	-0.0064638173
22	0xbc1ceea2	-0.009578379
23	0xbbbaf958	-0.0057059936
24	0x3ce28b97	0.027654452
25	0xbbf909bc	-0.0076000374
26	0x3b40799d	0.0029369362
27	0x3c96faf0	0.018430203
28	0xbc255427	-0.010090864
29	0xbc051c0c	-0.008124363
30	0x3c911790	0.01771143
31	0x3bad610f	0.0052911113
32	0x3a15645f	0.00056988554
33	0xbc1b4568	-0.009476997
34	0x3bf79df1	0.00755667
35	0xbb961f8b	-0.004581397
36	0xbb9a8c2e	-0.0047164178
37	0x3c4ffff1	0.0126952985
38	0xbc416141	-0.011802972
39	0xbba5772e	-0.0050496077
40	0x3d02d399	0.031940077
41	0x3ab4a9b5	0.0013783487
42	0xbabd3b51	-0.0014437233
43	0x3c508553	0.0127270995
44	0xbc486b00	-0.012232542
45	0xbc103eb7	-0.008804015
46	0x3c15d1a3	0.00914422
47	0x3c213dc6	0.009841388
48	0x3c3d62d5	0.011559208
49	0x3c3544dd	0.011063782
50	0x3a92dad4	0.0011204132
51	0xbbff79b6	-0.0077964915
52	0x3c4b24ec	0.01239894
53	0x3c6b2b11	0.01435353
54	0x3befa4a8	0.0073133297
55	0xbbc8511f	-0.006113186
56	0xb94c73da	-0.00019498114
57	0x3bc79b85	0.0060915374
58	0x3c860cd2	0.016363535
59	0x3c1811ae	0.009281559
60	0x3bdfa1cc	0.0068247076
61	0x3b326ee2	0.0027226736
62	0x3a530ff1	0.00080513867
63	0x3c59699b	0.013269807
64	0x3ccc3a4d	0.024930144
65	0x3bd25449	0.006418739
66	0x3cddd2ce	0.027078059
67	0x3bffd7fb	0.0078077293
68	0x3d08b104	0.03337194
69	0x3c813b34	0.0157753
70	0x3c0cc662	0.00859222
71	0x3c927834	0.017879583
72	0x3c447c91	0.01199259
73	0x3cb9b49a	0.022669125
74	0x3bbd7db1	0.005782806
75	0x3cd5151b	0.02601104
76	0x3c2f29bd	0.0106911035
77	0x3cee240b	0.029069921
78	0xbb793fe1	-0.003803246
79	0x3cbb3566	0.02285261
80	0xbc8c10b8	-0.017097816
81	0x3c24efca	0.010066936
82	0xbac01bb9	-0.00146567
83	0x3ab7f171	0.0014033747
84	0xbc3202fb	-0.010864968
85	0xbc5579b4	-0.013029505
86	0x3bc03725	0.0058659487
87	0x3cb00773	0.021487927
88	0x3c723688	0.014783509
89	0xbd215cba	-0.03939507
90	0xbbd48c5d	-0.006486459
91	0x3ca37470	0.019952983
92	0x3cabb96f	0.020962445
93	0xbc98d7d3	-0.0186576
94	0xbb6e3736	-0.0036348826
95	0x3c9b919c	0.01899033
96	0x3cd03fc2	0.025421027
97	0xbc103283	-0.008801105
98	0x3ab05f00	0.0013456047
99	0xbc059f61	-0.008155675
100	0x3c3acffe	0.011402128
101	0xbca18f26	-0.019721579
102	0x35f2442c	1.8050246e-06
103	0x3be2c9b6	0.0069210185
104	0xbb931b1f	-0.004489317
105	0x3c384eb2	0.011249231
106	0x3c616621	0.01375726
107	0x3c787e5b	0.015166844
108	0x3c2041f4	0.009781349
109	0xbb4998bb	-0.00307612
110	0x3c9d8ade	0.019231256
111	0x3b16c982	0.0023008292
112	0x3cb56dc3	0.022147065
113	0x3bcec968	0.0063106306
114	0x3c732cf6	0.0148422625
115	0x3c9ae783	0.018909222
116	0x3c80ba59	0.015713857
117	0xbc7a941b	-0.0152941
118	0xbc67c32e	-0.014145656
119	0xbc2e9ba2	-0.010657223
120	0xbb8bbbc7	-0.004264328
121	0x3ba289f1	0.0049602916
122	0x3956d03f	0.00020486208
123	0xbc0373f4	-0.008023251
124	0xbbee6bf6	-0.0072760535
125	0x3bc90166	0.0061342
126	0xbc3aa7f0	-0.0113925785
127	0x3ca70c05	0.020391474
128	0x3bc75e41	0.006084234
129	0xbc0646ca	-0.008195588
130	0x3cf9d203	0.03049565
131	0xba3db551	-0.0007236796
132	0x3c9d2fab	0.019187769
133	0x3d01dab9	0.03170273
134	0x394387ca	0.00018647235
135	0x3c9c3d4a	0.019072194
136	0xbc32a097	-0.010902545
137	0x3cee072e	0.029056158
138	0x3c11078a	0.008851895
139	0x3d0125ef	0.031530317
140	0x3cf48160	0.029846847
141	0x3cd28f2f	0.02570304
142	0x3cb7735f	0.02239388
143	0x3d3ebf02	0.046568878
144	0xbbc98887	-0.0061503085
145	0xbb96d113	-0.0046025603
146	0xbbe5881a	-0.00700475
147	0xbc8c5e6e	-0.017134871
148	0x3ce06477	0.027391655
149	0x3d084100	0.033265114
150	0x3c4bd50e	0.012440933
151	0x3d3aa08c	0.045563266
152	0x3ccab4e1	0.024744453
153	0x3c2893a3	0.010289106
154	0x3cd51ee1	0.0260157
155	0xbbdc4d8b	-0.006723111
156	0x3cb42e05	0.0219946
157	0x3c8ba2e7	0.017045451
158	0xbbfa97c4	-0.0076474864
159	0x3c333c3d	0.010939655
160	0x3d1b8501	0.03796864
161	0x3d0e7252	0.034776993
162	0x3ce8fdbe	0.028441306
163	0x3d0c8851	0.03430969
164	0xbc6020c0	-0.013679683
165	0x3ca92d7c	0.020651571
166	0x3bf20516	0.00738586
167	0x3d15b494	0.036549166
168	0xbb9f2fe8	-0.004858006
169	0x3cacdced	0.02110144
170	0x3d0c2664	0.0342163
171	0x3c137bed	0.009001714
172	0xbc12033d	-0.008911905
173	0x3d03dbff	0.032192226
174	0xbb12f0f5	-0.0022421454
175	0x3be6d419	0.007044327
176	0x3cce91f8	0.025216088
177	0x3c87d94b	0.016583106
178	0xbbf520bc	-0.007480709
179	0x3cdb05a0	0.02673608
180	0xbb888788	-0.004166547
181	0x3abb8ba4	0.0014308584
182	0x39eeff55	0.00045585135
183	0x3be30955	0.0069286027
184	0xbbe59c4e	-0.0070071584
185	0x3cd68eb7	0.026191099
186	0x3cbe19c5	0.023205647
187	0x3cbe6c42	0.02324498
188	0xbc50635d	-0.012719003
189	0x3cb3b313	0.021935975
190	0x3b0c41d5	0.0021401544
191	0x3d011f68	0.031524092
192	0x3c25b132	0.010113047
193	0x3c292b59	0.010325276
194	0x3c3183b5	0.010834624
195	0x3c2fd67a	0.010732288
196	0x3abb3595	0.0014282936
197	0x3c5c901d	0.013462094
198	0xbabb5b2a	-0.0014294137
199	0x3ba3b0aa	0.004995425
200	0x3c8cb220	0.01717478
201	0x3b6eb9f5	0.0036426757
202	0x3d35c533	0.044377517
203	0x3c2d65a3	0.010583314
204	0x3d07d2ef	0.033160146
205	0xbc7496ea	-0.014928559
206	0x3d292aab	0.041300457
207	0x3ce3646f	0.027757851
208	0x3d076036	0.03305074
209	0x3cd89a3b	0.02644073
210	0x3c7b5f36	0.015342524
211	0xbc233e72	-0.009963619
212	0xbc31e161	-0.010856957
213	0xbc8780c2	-0.016540889
214	0x3c31215e	0.010811178
215	0x3bf8ed06	0.007596615
216	0x3cb6a239	0.02229415
217	0x3c86168d	0.016368175
218	0x3cca2194	0.024674214
219	0x3a5cfc63	0.00084299425
220	0x3bd68a5d	0.006547256
221	0xbc52f2a5	-0.012875234
222	0x3cf8a626	0.030352663
223	0x3c47aa13	0.012186545
224	0xbbf903e2	-0.00759934
225	0x3c89f11e	0.016838606
226	0x3c4e95cb	0.012608956
227	0x3d064b0d	0.032786418
228	0x39352482	0.00017275105
229	0x3c5767d6	0.013147315
230	0x3bcb8759	0.006211203
231	0x3c3cef04	0.011531595
232	0xba9bf83c	-0.0011899541
233	0x3ba6076f	0.005066804
234	0xbb9038ca	-0.004401301
235	0x3ced0939	0.028935062
236	0x3b02808f	0.0019913053
237	0xbbc0b2b3	-0.0058806776
238	0x3c336b43	0.010950866
239	0xbc3a0177	-0.011352888
240	0x3b32f812	0.0027308506
241	0x3caa8895	0.02081708
242	0x3b350dc7	0.002762662
243	0x3c9eae67	0.01937027
244	0x3cf4a5ab	0.029864153
245	0x3c3435ab	0.010999124
246	0x3c8acd60	0.016943634
247	0x3a155a66	0.00056973693
248	0xbbceedb8	-0.0063149594
249	0x3bbee959	0.005826157
250	0xbbe181cc	-0.006881928
251	0x3c746204	0.014915947
252	0xbcb53712	-0.022120986
253	0xbc8e941f	-0.017404614
254	0x3cb03e54	0.021514095
255	0x3c79c4bf	0.015244662

transformer_encoder.layers.0.linear2.bias f4 [16]
0	0x3c6bee2f	0.014400049
1	0xbc50ac01	-0.012736321
2	0xbcd2165b	-0.025645426
3	0x3bdcdb84	0.0067400355
4	0xbc820764	-0.015872665
5	0xbcd53fc2	-0.026031379
6	0x3a629a19	0.0008644178
7	0xbc210921	-0.009828837
8	0x3bd89942	0.0066100666
9	0x3b0f04e6	0.0021822988
10	0xbb479d3b	-0.0030458707
11	0x3c03d5eb	0.0080466075
12	0x3d25d44e	0.040485673
13	0xbc10e8b3	-0.008844542
14	0x3a0d8be2	0.00053995673
15	0x3c85eef4	0.016349293

transformer_encoder.layers.0.norm1.weight f4 [16]
0	0x3f815fb9	1.0107337
1	0x3f812699	1.0089904
2	0x3f7f9792	0.9984065
3	0x3f8142d9	1.0098525
4	0x3f82b82a	1.0212452
5	0x3f81fee9	1.0155917
6	0x3f811168	1.0083437
7	0x3f7cffab	0.9882762
8	0x3f80c279	1.0059348
9	0x3f7c9430	0.98663616
10	0x3f82893d	1.0198132
11	0x3f813607	1.0094613
12	0x3f73ab0c	0.9518287
13	0x3f7b15c1	0.9808007
14	0x3f80f044	1.0073323
15	0x3f7a3782	0.9774095

transformer_encoder.layers.0.norm1.bias f4 [16]
0	0x3cc52fa6	0.024070572
1	0x3ab912e7	0.0014120013
2	0xbd2b10c2	-0.04176403
3	0xbc05b2f4	-0.0081603415
4	0xbcefc293	-0.029267585
5	0xbba27cfc	-0.004958747
6	0x3c68dd9f	0.014212995
7	0x3cac0ceb	0.021002254
8	0x3bb6018d	0.005554384
9	0x3c53c653	0.012925702
10	0x3c09ab50	0.0084026605
11	0x3be9a1a0	0.007129863
12	0x3cd6ab7c	0.026204817
13	0xbc800121	-0.015625538
14	0xbc132517	-0.008981011
15	0x3a6fd1b5	0.0009148375

transformer_encoder.layers.0.norm2.weight f4 [16]
0	0x3f810db9	1.0082313
1	0x3f79d23f	0.97586435
2	0x3f7ad8ce	0.9798707
3	0x3f82972d	1.0202385
4	0x3f7e2728	0.992785
5	0x3f809280	1.0044708
6	0x3f7bf874	0.98425984
7	0x3f7e4834	0.99328923
8	0x3f73aee5	0.9518874
9	0x3f7f353b	0.996906
10	0x3f7c1bd6	0.98479974
11	0x3f82a021	1.0205117
12	0x3f7b2adc	0.98112273
13	0x3f834d5e	1.0257986
14	0x3f8075db	1.0035967
15	0x3f808b42	1.0042498

transformer_encoder.layers.0.norm2.bias f4 [16]
0	0x3d2ddb86	0.042445682
1	0x3cb28773	0.021793103
2	0xbd567401	-0.052356724
3	0xbd010e33	-0.031507682
4	0xbceb7aff	-0.028745173
5	0xbca0a259	-0.019608663
6	0x3cc4787a	0.023983229
7	0x3ae84698	0.0017721234
8	0xbb640acf	-0.0034796481
9	0x3cd477dc	0.02593606
10	0x3cc90380	0.024537802
11	0x3cae6db3	0.021292543
12	0x3cf2df93	0.029647624
13	0xbc2097fa	-0.009801859
14	0xbc33d7a3	-0.010976705
15	0x3a9b1403	0.0011831525
